test_output/checkpoint-471/model.safetensors (safetensors, 68892 bytes, 182 tensors)

backbone.encoder.mlp_mixer_encoder.mixers.0.feature_mixer.gating_block.attn_layer.bias f4 [16]
00000000: 3876 213e bfa5 22bd ec4b d83d f325 603e
00000010: 80ae 4fbe 0fa6 c8bd 7787 823e 8a38 8ebd
00000020: 298b 413e 2c67 463e acec acbd 380d 583e
00000030: d742 0eba 732c 1fbe c51f 10be 95fa 53bc
0.15767753 -0.03970885 0.10561356 0.21889476 -0.2028141 -0.09797298 0.25493976 -0.06944378
0.18900742 0.19375294 -0.08443579 0.21098793 -0.000542683 -0.155443 -0.14074619 -0.012938161

backbone.encoder.mlp_mixer_encoder.mixers.0.feature_mixer.gating_block.attn_layer.weight f4 [16, 16]
00000000: ed63 ed3d 0123 913d 761d 253e c80b 273e
00000010: f3d2 11bd 9a3c 1f3e e6bb 54be cf9a 5fbe
00000020: 5e82 10be f3eb 073e 1de4 aebd 6193 6bbd
00000030: 7603 41bd a06f 103e 5a7c 50bd 2c08 28bd
00000040: 6905 cebd 6e8e 81be 38f1 3f3e 2053 473e
00000050: 8ecc 15bc bf2a 3a3e 0671 6e3d 7b4e 98bd
00000060: 52d5 373e 5536 ccba 4594 013e 2bfe c93d
00000070: 8d4b 5bbd bbd7 cebd 7450 933d 9bd5 003e
00000080: b352 20be 9eaa cebd db6a 6bbe 142b 783d
00000090: 75d5 39be 55a2 07be 7e2f 1e3e e1d9 603d
000000a0: a0e8 073e 51a3 6abe c90a 47bd 997e 80be
000000b0: e3eb 533e e848 d13c dae8 453e 38ed 283d
000000c0: 63ff 3f3e 8753 353e d719 f53d 385e 67be
000000d0: 8db1 293e 3e05 0c3e f3fb 27be 51be 9dbd
000000e0: 25f7 6fbc 7619 6a3e a9d8 d9bd 3171 7d3e
000000f0: e323 3bbe 3c0e 28be a17b ccbd e2b3 f53d
00000100: 3142 183e a125 9fbd 94f2 5d3e 6c2b 043e
00000110: 5f7e 463e eed6 663e 29b2 46be 1faa dcbd
00000120: ebd3 10be f3b6 35be 7339 383e 0387 553c
00000130: 14ac 6a3e 268d d43d 76a0 2bbe 3204 623e
00000140: 6583 9b3d f0cc 29be 5150 eabd 6d0d f5bc
00000150: 07e5 46be a283 fcbd 094c 3fbe 8558 4abe
00000160: b11e 70be 6b7b 613e 8feb de3d 31ff b03d
00000170: f7ef 91bb 81e3 dabd 570b 073e d2b0 0abe
00000180: b902 dcbc 92b5 25be 2825 66be 3194 493e
00000190: 9167 92bc 9df8 cf3d 404b 33be a841 713e
000001a0: 3ff5 f8bd 566b 29be 9b1b 14be a650 6fbe
000001b0: 52d5 433e cf46 b23d 7bf8 ec3d c795 2e3e
000001c0: 30fa d1bc 37d2 6c3c f311 0ebc 5095 553d
000001d0: 8e1e 5e3e f241 1f3e 404a 2d3d 47e4 0bbe
000001e0: 07ac 043e 051e 513e 13e6 34be f410 3b3d
000001f0: ac90 733d b482 c1bc e5b2 323e 068e 83bc
00000200: 54b3 37be eeb8 4a3d f959 9f3c 7626 1fbe
00000210: 5cf4 b6bd 4fc0 343e 1227 923c c104 f63d
00000220: 36a3 76bd 816e 053e d339 cebc 50b3 4cbe
00000230: 3c2e 23be 355f babd 0a16 433e d636 643e
00000240: 9211 d3bd dfdc 4ebe 0d96 cc3c d805 f7bc
00000250: 0f17 fa3d 0f3f 26be 69ff bd3d 01ae 833d
00000260: cfbd 01be 5560 8e3d 6ee6 773e 059c 0bbe
00000270: f077 70be 63a3 dbbc cb89 143c 6b67 503e
00000280: d7b1 bebc cb89 823c 114f d7bd 5696 3c3e
00000290: 7d26 563e 3473 7a3e 6428 733d f809 213e
000002a0: 6087 ebbd c7d6 3bbe 134a d43d 45a9 bb3d
000002b0: 6f09 9cbd 73a1 44be 48ba f53d d8c9 46be
000002c0: f5b4 5f3e 76b7 76be 1f94 c63d 3b84 03be
000002d0: 58ac 18be b69c 14be 6864 373c 5e24 603c
000002e0: 4ce2 66be 29f3 7f3d 6049 383e 8cea b73a
000002f0: 94f1 88bd f474 01be 7486 d93d e397 54be
00000300: 0bd4 3dbe 8205 4cbd 766a d13d 9e92 01be
00000310: 6664 02be 1c87 463c fec7 3b3e 69eb 673e
00000320: 70d2 d9bd 04d7 17bd 6d21 2bbd 4cde 44bb
00000330: f2e8 8bbd 6016 b43d 3fb3 41be 962b 133d
00000340: d8e3 1fbe cd0d 0b3e 1319 403d 64af 0c3e
00000350: 18c0 5cbe 465d 7e3c 56e1 87bd b064 abbd
00000360: f73b a7bd 0fc9 5fbe e8fe aabc 0143 5f3e
00000370: 2d7c 4bbe eef9 2f3e 4d97 c53d 5175 04be
00000380: 8ad6 553e 0554 5abe e548 9c3d fcf3 bdbd
00000390: 58eb 5abe c6d4 663e f259 053e 6257 283e
000003a0: 660d 10be 1fa0 533e b183 b93c a645 3f3d
000003b0: 30fd aabc c34a fb3d a43b e43d 70c6 dfbd
000003c0: 2e27 48be 97ce 543c cc01 7e3d eab3 31be
000003d0: ca80 753e bff8 383c 3282 553e 4acb 1fbe
000003e0: cff9 153e cc8a 98bd 3758 77be b352 c53d
000003f0: b24d f3bd 102a 04bc 2c6b 19be 93f7 71bb
0.11591325 0.070867546 0.1612452 0.16313088 -0.035601567 0.15550461 -0.20774803 -0.21836399
-0.14112231 0.13273601 -0.08539603 -0.0575136 -0.04712244 0.14105082 -0.05089984 -0.04102342
-0.10059626 -0.25303978 0.18744361 0.19465303 -0.009143008 0.18180369 0.058213256 -0.07436844
0.17952469 -0.0015580157 0.12654217 0.09862932 -0.053538848 -0.10099741 0.071930796 0.12581484
-0.15656547 -0.100911364 -0.22989981 0.060587958 -0.18147834 -0.13245519 0.15447804 0.054895286
0.13272333 -0.22913863 -0.04859427 -0.25096586 0.20695452 0.02554746 0.19327107 0.041241854
0.18749766 0.17707644 0.11967819 -0.22594535 0.16571636 0.13673875 -0.16404705 -0.077023156
-0.014646326 0.22861275 -0.10637028 0.2475021 -0.18275408 -0.1641168 -0.09984518 0.119972005
0.14869 -0.07770849 0.21674567 0.12907189 0.19384144 0.22542927 -0.194039 -0.107746355
-0.1414334 -0.17745571 0.17990665 0.013032678 0.22917205 0.103784844 -0.1676043 0.22071913
0.07593421 -0.16582084 -0.114411004 -0.029913628 -0.19423304 -0.123297945 -0.18681349 -0.1976033
-0.23449208 0.22019736 0.10884773 0.08642424 -0.004453655 -0.10687924 0.1318792 -0.13544014
-0.026856767 -0.16182545 -0.22475111 0.19685437 -0.01787165 0.10154841 -0.17509174 0.23560202
-0.12156152 -0.16544852 -0.14463656 -0.23370609 0.19124344 0.08704912 0.115708314 0.17049323
-0.025631994 0.014454416 -0.008671272 0.05214435 0.21691343 0.155525 0.04230714 -0.136613
0.12956248 0.20421608 -0.17665891 0.045670465 0.05946414 -0.023621894 0.17451055 -0.016058933
-0.17939502 0.04949277 0.019452082 -0.15542015 -0.089333266 0.17651485 0.017840896 0.120126255
-0.060214244 0.13030435 -0.025174057 -0.19990277 -0.15935606 -0.091001906 0.19051376 0.22286543
-0.10306086 -0.20201443 0.024973894 -0.030154154 0.12211429 -0.16234992 0.09277231 0.06429673
-0.12670062 0.069519676 0.24208996 -0.13633735 -0.23483253 -0.026811307 0.0090660555 0.20351951
-0.02327816 0.015934845 -0.105131276 0.18416724 0.2091312 0.24458009 0.05936469 0.15726459
-0.1150043 -0.1834365 0.10365691 0.09163145 -0.07618987 -0.19202213 0.11998421 -0.19412935
0.21846373 -0.24093422 0.096962206 -0.1284341 -0.14909494 -0.14512905 0.011193372 0.013680546
-0.22547263 0.062487755 0.1799674 0.0014031692 -0.06686702 -0.1264227 0.10621348 -0.20761065
-0.18537919 -0.04980994 0.10225384 -0.12653586 -0.12733611 0.0121171735 0.1833801 0.22648396
-0.10635841 -0.03707029 -0.041779924 -0.0030039726 -0.0683154 0.0879333 -0.18916033 0.03593024
-0.15614259 0.13579483 0.046898913 0.13738781 -0.21557653 0.015525168 -0.06634776 -0.08368814
-0.08165734 -0.21854042 -0.020873502 0.21802904 -0.19871588 0.17185184 0.09647999 -0.12935378
0.20882621 -0.21321113 0.07631091 -0.09275052 -0.21378839 0.22542104 0.13022593 0.16439584
-0.14067611 0.2066655 0.022645803 0.04669728 -0.020872682 0.12270119 0.11144188 -0.10926521
-0.19546196 0.012988708 0.062013432 -0.17353788 0.2397491 0.011289774 0.20850447 -0.15604892
0.14646076 -0.074483484 -0.24154745 0.09634914 -0.118800536 -0.008066669 -0.14982289 -0.0036921247

backbone.encoder.mlp_mixer_encoder.mixers.0.feature_mixer.mlp.fc1.bias f4 [32]
00000000: 8b55 163e 5dfc 4bbe cd90 403c 574f 6dbc
00000010: 9708 a43c 9de3 5e3e e292 31be 8f18 5fbe
00000020: 82ef 2bbe 053f b73d 7c62 a33c f937 223e
00000030: 1aae 683e 2b40 00be 927f 66be d721 4cbd
00000040: 2128 f43d 202f a6bc 93cd 02be 2b60 4ebe
00000050: 9c40 883d 84b6 c6bd 8eba aabd 78c2 1b3e
00000060: e212 703e d8e0 663c 3e24 683e 313c 0cbe
00000070: c8ba f7bc 6303 74be 0e7e 28be 0150 423e
0.1468107 -0.19920488 0.011753273 -0.014484248 0.020023627 0.21766515 -0.17341188 -0.21786712
-0.16790584 0.08947567 0.019944422 0.15841664 0.22722664 -0.12524478 -0.22509602 -0.04983696
0.119217165 -0.020286143 -0.12773733 -0.20153873 0.06652948 -0.09702781 -0.08336364 0.15210903
0.23444703 0.014091693 0.22670075 -0.13694836 -0.030240431 -0.23829417 -0.16454336 0.18975832

backbone.encoder.mlp_mixer_encoder.mixers.0.feature_mixer.mlp.fc1.weight f4 [32, 16]
00000000: 556e f2bd 9290 6cbe 585d 4b3e 6564 78be
00000010: 765b d73d 4058 5dbe cf6c 503e 3fa5 e83d
00000020: 19ba 0b3e 100b ccbc 242b 4c3e 21e8 7c3e
00000030: 7059 043d 891a 3f3d a39f 50bd d528 8cbd
00000040: f5c8 643d 3a92 1f3d abc4 bebc edf7 cc3d
00000050: f1fa 113e f3db a6bc c292 07bd a6d5 d7bd
00000060: bd10 b9bd 9fbe 5abb 2304 3ebe 7131 febd
00000070: e74a 93bd 4179 10be 3efc 30be b0d4 423e
00000080: 2d6d 62be 91ed 23be 582c 28be e392 463e
00000090: f5e7 dbbc f412 82bd bada debd d189 23be
000000a0: ae8a 603e deca 1ebe 34cd 16be bc62 133e
000000b0: 4fa6 1c3e d741 35be 5543 7ebd 4c9b a0bd
000000c0: 5094 e3bd 802f 0b3e bfb4 52be 0eaf 83be
000000d0: b76d 703e 4ee9 71be 28ba 82be ad1e b43d
000000e0: 41ec 09be f92b 4bbe 6576 f2bb 8f9e 5cbe
000000f0: 3207 463e 5c8d 483c 9edd 273d 587f bfbc
00000100: 2134 24bc eecb e6bd 9774 4fbe 62ad 2d3c
00000110: 7e75 50be a340 6c3c 525e 23be a9cc 153e
00000120: 5b88 9b3b f84b 9ebd ec26 6f3d d073 393d
00000130: a5a3 0fbe 1da3 32be 7c0a cabb 39aa 703e
00000140: dc73 51be 4262 eabd dde4 9c3c 671d 31be
00000150: 83a8 71be 63c2 e1bd 5c34 88bd 8eab 0e3d
00000160: a186 55bd 38dc 263e 5441 0f3e 84cc 423e
00000170: defa 123d 7584 083e 0f36 1d3e 00a4 d5bd
00000180: 3650 2ebe 5bd3 e33c abc9 373e 5ee0 d03d
00000190: 954e 45bd 3e29 bebd 61be 303e def2 0e3e
000001a0: 8402 69be 4db2 103e 23a9 003e 16b7 723e
000001b0: e62b 653e abea ecbc fdd4 ffbd 7696 4d3e
000001c0: 51d2 9bbd 73b6 90bb 581b f9bd 13ad 24bd
000001d0: f949 6ebe f8c7 27be 3777 7d3e 9993 253e
000001e0: 239c 6a3e 4a83 4c3e 5e84 80be 8b77 d83d
000001f0: b15f f4bb 7c41 a53c cde2 f33d afc2 9dbc
00000200: 25f6 2d3e 4254 59be bc0b ffbd df61 23bd
00000210: fa22 f03c 532b 563e 4129 b53c 61de ddbd
00000220: 44ab c7bd 8e90 e23d 0f9b 313e 7360 bc3d
00000230: a77d c6bd 2127 b73d 2ddf ad3d 27c3 313e
00000240: d87e 3a3e f938 4ebe 1710 02bd a15f c6bd
00000250: b9e9 48bd e6e6 0a3e 07b0 38be 0d3b 2fbd
00000260: d125 afbb fafa be3c 3b38 d5bd 1708 9a39
00000270: da64 53bc 140e f5bd cd55 55be bc9b 84bd
00000280: 55b9 903d d5ba bc3d 406a 3e3e c73a d03c
00000290: 054a 32bd 6189 fe3d 3eda 6dbe 1e83 1dbe
000002a0: ac6b b7bd d566 0c3e da1e 3bbe 55c5 53be
000002b0: bcb5 cabd 5c2e 2a3e 0671 653d 5ceb 92bc
000002c0: dbb2 623e 07b7 b13d 3499 7c3e ef05 37be
000002d0: 474d 303c 4854 fb3d 63e9 b63d 5774 13be
000002e0: 8f21 233e b9fa 77be 2011 06be 6353 143e
000002f0: 1811 b1bd 53db 3e3e 176c 5ebe a6fe 733e
00000300: ad40 2abe fafa 02bd 378b 143d 31f1 e63d
00000310: de9e ab3c b196 a93c ddce 17be 1860 763e
00000320: ee14 77be ef14 633d e1f2 03bb 8323 d4bd
00000330: 437d 943d ca3e 6f3d 6652 4cbe 54e2 003e
00000340: 793c bdbb 69f7 d03c 215c 253e e69b 683e
00000350: 7694 8e3d ae69 1d3e ffe7 afbd fd5e 37bd
00000360: 7c92 063e c875 043d 7a00 cfbd 3e2b fabd
00000370: 1772 05be dcf2 593e 6004 55be 919b 2ebe
00000380: 6f0a 18be d69f 17be f69f 3cbe dd8a 303e
00000390: 99fc 68bd 3e91 9e3d d4b9 5d3d a4c7 0ebe
000003a0: b79e 58be e061 1bbe dd47 833e d130 593e
000003b0: 5d23 a0bd aaee ce3d 0ebf 533d 7caa 0f3e
000003c0: d0f5 c7bd 9dd0 33be 668a d33c 6294 603e
000003d0: 5b6a d33d 1117 c73d 84f5 833e 0aa6 43be
000003e0: 1712 a0bd 3c4b 683c 990f 2a3e e673 b13d
000003f0: adfa 3cbe 0637 bbbd 633c 5b3d 844e 5f3d
-0.118374504 -0.23102024 0.19859827 -0.24257047 0.10515492 -0.21615696 0.20354007 0.11359643
0.1364521 -0.024907619 0.19938332 0.24697925 0.032311857 0.046656165 -0.05093349 -0.068437256
0.05585571 0.038957812 -0.023287138 0.100082256 0.14255883 -0.020368552 -0.033098944 -0.10538797
-0.09036396 -0.003337778 -0.18556266 -0.12411774 -0.07192021 -0.14108755 -0.17283723 0.19026446
-0.2211196 -0.16008593 -0.16423166 0.1939197 -0.026844004 -0.06351271 -0.108815625 -0.15970542
0.21927902 -0.15507075 -0.14726716 0.14393133 0.15297817 -0.17700897 -0.06207593 -0.078421205
-0.11112273 0.13592339 -0.20576762 -0.25719494 0.23479353 -0.23624155 -0.2553265 0.087949134
-0.1346903 -0.19840993 -0.0073993676 -0.2154486 0.19338682 0.012240734 0.040982835 -0.023376152
-0.010022194 -0.11269365 -0.20259319 0.01060042 -0.2035732 0.0144197075 -0.15953949 0.14628853
0.0047464794 -0.07729334 0.05838673 0.045276463 -0.14027269 -0.17445035 -0.0061658006 0.23502435
-0.20454353 -0.114445224 0.0191521 -0.17296372 -0.23599438 -0.110234044 -0.06650612 0.034831576
-0.052130345 0.16294944 0.13989764 0.19023329 0.035883777 0.13331778 0.15352653 -0.10431671
-0.17022786 0.027810743 0.17948024 0.10199045 -0.048170645 -0.0928521 0.17260124 0.13959834
-0.22754866 0.14130516 0.1256452 0.23702654 0.22380027 -0.028920492 -0.12491796 0.20076928
-0.07608474 -0.004416281 -0.121634185 -0.04020412 -0.23270406 -0.16384876 0.24752508 0.16169585
0.22911124 0.19971958 -0.25100988 0.10569676 -0.0074576964 0.020172827 0.11908493 -0.019257871
0.16988428 -0.21223548 -0.1245341 -0.03988826 0.029313553 0.20914964 0.022114398 -0.10833431
-0.09749463 0.11062728 0.17344306 0.09198084 -0.09691935 0.0894301 0.08489833 0.17359601
0.1821245 -0.20138921 -0.031753626 -0.096862085 -0.04905102 0.13564643 -0.18035899 -0.042780925
-0.0053450842 0.023313034 -0.10411116 0.00029379196 -0.012902463 -0.11965576 -0.20833512 -0.064750165
0.07066599 0.09215323 0.18595219 0.025418652 -0.04352762 0.12428547 -0.23227784 -0.15382048
-0.08956084 0.13711102 -0.18273488 -0.20680745 -0.09897944 0.16619247 0.05601599 -0.017934494
0.2213854 0.08677488 0.24667817 -0.17873357 0.010760612 0.12271935 0.08931234 -0.14399849
0.1593077 -0.24216737 -0.1309247 0.14484935 -0.086458385 0.18638353 -0.2172092 0.2382761
-0.16626234 -0.03197763 0.036265578 0.11276472 0.020949777 0.020701738 -0.14825006 0.24060094
-0.24129078 0.055439886 -0.002013378 -0.10358336 0.07250454 0.05840949 -0.19953308 0.12586337
-0.005775031 0.0255086 0.16148426 0.2271572 0.069619104 0.15372345 -0.085891716 -0.044768322
0.13141817 0.032338887 -0.10107513 -0.12215279 -0.13031803 0.2128405 -0.2080245 -0.17051531
-0.1484773 -0.14807066 -0.18420395 0.17240472 -0.05688152 0.077425465 0.054132298 -0.13943344
-0.21154295 -0.15174055 0.25640765 0.21210028 -0.07819245 0.10104115 0.051695876 0.14029878
-0.09763682 -0.17560048 0.02582283 0.21931604 0.1032302 0.097211964 0.2577325 -0.19106308
-0.0781595 0.0141780935 0.16607513 0.08664684 -0.18455 -0.09141354 0.053524386 0.054518238

backbone.encoder.mlp_mixer_encoder.mixers.0.feature_mixer.mlp.fc2.bias f4 [16]
00000000: 0145 07be bca6 883c 115b c1bd c9fa 43bd
00000010: c280 d73d eb29 4dbc 1c4d 9ebd 35ee 1ebe
00000020: 2a0e 313e e1d8 ecbd 9972 ae3c 3715 d0ba
00000030: 72d8 db3d 4ebe 273d c3b1 febd 412a f9bd
-0.13209917 0.016681068 -0.09441198 -0.04784659 0.105226055 -0.012522201 -0.07729551 -0.15520556
0.1729056 -0.11564804 0.021294879 -0.0015875463 0.10734643 0.040952973 -0.12436249 -0.121662624

backbone.encoder.mlp_mixer_encoder.mixers.0.feature_mixer.mlp.fc2.weight f4 [16, 32]
00000000: f201 233d cbf2 963c dc17 213e fcc7 60bd
00000010: 17e5 1fbe db6f d03d 807e 2dba 641a 40bc
00000020: b1ed e83b fe74 12be fe17 513d 911f 1ebe
00000030: 8c0a 093e 2913 25be 06f9 e63c c2c2 013d
00000040: 864d 1b3c ae61 8a3c 5e51 0f3e b51c 9f3c
00000050: 5828 22bb 6720 0abe a295 083e 7ace 2cbd
00000060: f85b 96bd b5b1 dabd c925 843d a982 a03d
00000070: b73b d9bc 90ee e53b d8e5 03be 36d6 7abd
00000080: 90f9 e53b f385 0abe 4e2d 85bb 8a75 be3d
00000090: b121 063e 2367 49bd bd92 88bd 71f3 a4bd
000000a0: 6c58 22be 20e1 e1bc 0849 813d 1aeb 023b
000000b0: 3af7 21be ab41 54bc 2ab2 2fbe 9c59 ba3d
000000c0: 7588 4a3d 6234 3a3e 9fff 3a3d 4ee7 07be
000000d0: 0205 0e3d 3571 e7bc 4988 e6bd fc40 cd3d
000000e0: ddb9 153e d22d ddbd f3a9 b0bd e98b afbc
000000f0: 691e 05be 5d9e 093e 1493 293e e4d5 ba3d
00000100: 7619 9dbd a3d1 153e 54f9 a1bd 7df1 0ebe
00000110: be5b e9bd f6ad a23d 736c c9bd f1e6 2c3e
00000120: 0756 203d 1505 40be 05f3 0fbe bb6d c73d
00000130: d221 e0bd 1759 72bd 781f 05be cf03 0e3e
00000140: a081 733c 83c3 54bd ac78 2dbe d8d9 1c3d
00000150: 5e52 043d 9d65 29be ef47 bcbd 8312 0c3d
00000160: d0e6 b4bd af8a 26bb fa63 803d 30b8 393d
00000170: 5855 163e f2d4 fd3d b662 1b3e e4f6 d3bd
00000180: 3d67 013e 5156 973b b90d 01be f154 b43c
00000190: fd41 33bb bea7 9dbd 3a62 bd3c 6942 63bd
000001a0: a3fb 113b 845e cb3d 60d8 853c ecc6 5c3d
000001b0: bcdf 25bd 2e79 2bbe cdb9 023c 1d0a b93c
000001c0: 5619 cd3d 5115 003e 7dc5 823d 5769 66bd
000001d0: 2d17 2bbe d341 d6bc f332 2a3e 3b08 cebd
000001e0: 1efa 14be 45d9 37be 09c9 36bb 4a54 d3bd
000001f0: 74eb 003e ab07 b73d 57b3 233e fec3 573d
00000200: a4a1 84bc f7bf 333d 29b0 d33c 9512 d03d
00000210: 768e 35bd f2bf df3d dc66 313d e3c5 fabc
00000220: 1aca df3d 37b4 ed3c 543a 08be 82da a5bd
00000230: 7ecd c83d 0138 1d3c fb11 f4bd 124a 31bd
00000240: 3d1e 2cbe 8d84 ae3d 94c1 c9bd 12f4 3dbd
00000250: ab92 c8bd 54b3 28be ec4b cabd 974c d8bd
00000260: 1d64 4e3d 6940 b2bd b44e dcbc cf72 0bbe
00000270: da3d 67bd b416 123e 6b44 04be 62cb 1c3e
00000280: 0a5c c7ba bdb1 cbbd 70c4 403d 3a36 20be
00000290: 8ea0 423d 713d 503d ebba 1f3c a9c0 25bd
000002a0: 4c10 e43d 77a1 c43d 91d6 c13d 03e3 973d
000002b0: 681f 29be 0154 3f3e 38fb 2b3e 943d 09be
000002c0: 7a29 dd3d 6573 cc3d ad71 9a3c b918 323e
000002d0: cef7 9abd 0b3e 363e 4de6 f3bd c698 91bc
000002e0: df65 05be 8db5 41bc e6a8 263e c64e ce3d
000002f0: 9947 c93d 9d72 103e 73dc a6bd 157a c9bd
00000300: c4f5 883d 05b6 ff3d ffe8 463b 8597 c8bc
00000310: 4901 c03c 397c 673d ad29 8cbd 47b0 73bd
00000320: c41a 15be 5ba8 c23d e6f4 e9bb f5c7 6d3c
00000330: 35ab d03d dc28 f63c 3fc2 cb3d dcc4 d03c
00000340: 5ff9 df3d 878b caba 48e8 403d 30c4 293d
00000350: aa13 9a3d 238d 163e ea36 d73c 0a7a bf3d
00000360: 9edd 0a3d 0a7a 1b3e 94b0 8c3c ad9a ed3d
00000370: 10dd 8bbc 486b 073e 1791 e13d 7cc4 973d
00000380: 4238 b5bd 5907 1f3e 2f4f 8abd 76cb 19be
00000390: 6222 253d 54d9 f2bc 3ca8 113d 86b8 da3d
000003a0: 3d9f 523d f40e e4bd 4faa 2a3c d991 c43d
000003b0: 9791 dcbd 70c6 26be e40c 233e 0451 233e
000003c0: 9b35 2b3d a170 a7bd 7dae d7bd b2dc b1bc
000003d0: e1b8 223e d376 023e 12bf 74bd 4369 3ebe
000003e0: 3cbd f9bd 9e54 0d3e 4c92 263e ea8d 043e
000003f0: f330 3cbd fea7 d9bd 73ee c3ba 4959 a8bc
0.039796777 0.01842632 0.15731758 -0.05487822 -0.15614735 0.10177585 -0.0006618276 -0.011725042
0.007108413 -0.14302441 0.05104827 -0.15441729 0.1338293 -0.1612059 0.028194916 0.031679876
0.009478932 0.01689228 0.13995883 0.019422868 -0.0024743285 -0.13488923 0.1333833 -0.0421891
-0.073417604 -0.10678426 0.064525194 0.078374214 -0.026517732 0.0070169643 -0.12880647 -0.061239444
0.0070182756 -0.1352766 -0.0040642386 0.092997625 0.1309879 -0.049170624 -0.06668613 -0.08054245
-0.15854043 -0.027573168 0.06312758 0.0019976557 -0.15816966 -0.01295511 -0.17157808 0.09099123
0.04944654 0.18184045 0.045653936 -0.1327183 0.034672745 -0.028252224 -0.11256463 0.100221604
0.14621682 -0.10799755 -0.08626165 -0.021429019 -0.12999882 0.13439317 0.16560012 0.09122828
-0.07670872 0.14630751 -0.07908884 -0.13959308 -0.113944516 0.07943337 -0.09835138 0.16884972
0.039144542 -0.18751939 -0.14057548 0.09737726 -0.10943951 -0.059166994 -0.13000286 0.1386864
0.014862448 -0.051944267 -0.16940564 0.03829369 0.032305114 -0.16542669 -0.09193408 0.03419734
-0.088330865 -0.0025412252 0.06269069 0.04534167 0.14680994 0.12394132 0.15174374 -0.10349825
0.12637039 0.004618444 -0.12602891 0.02201316 -0.0027352565 -0.0769801 0.023118127 -0.055483256
0.0022275231 0.09930137 0.016338527 0.053900644 -0.040496573 -0.16745445 0.007978869 0.02258783
0.10014598 0.12508132 0.06385324 -0.056252804 -0.1670806 -0.026154434 0.16620998 -0.100601636
-0.14548537 -0.17953975 -0.0027890822 -0.10318811 0.12589818 0.089370094 0.15986381 0.052677147
-0.016190358 0.043884244 0.025840836 0.10159794 -0.044325314 0.109252825 0.043310985 -0.030611938
0.1092722 0.029016597 -0.133035 -0.08098318 0.098048195 0.009595872 -0.11917492 -0.04328353
-0.1680841 0.08521376 -0.09851375 -0.04637534 -0.097936 -0.16474658 -0.09877762 -0.10561483
0.050388444 -0.087036915 -0.026892997 -0.13618015 -0.05645547 0.14266473 -0.12916724 0.1531196
-0.0015209925 -0.0994601 0.047062337 -0.15645686 0.047516398 0.050839845 0.009749155 -0.04046694
0.11135921 0.096011095 0.094647534 0.07416346 -0.16515887 0.18684389 0.16795051 -0.13402396
0.10798927 0.09982947 0.018853033 0.17392243 -0.07566796 0.17797105 -0.11909161 -0.017773043
-0.13027142 -0.01182307 0.16275367 0.100736186 0.09828109 0.14106221 -0.08147516 -0.098377384
0.06687501 0.12485889 0.003035128 -0.024486313 0.023438113 0.056514952 -0.068438865 -0.059494283
-0.14560992 0.095047675 -0.00713979 0.0145130055 0.10188905 0.03004878 0.09949159 0.025484495
0.10936236 -0.0015452959 0.04709652 0.041446865 0.07523282 0.14702277 0.026271302 0.09349449
0.033902757 0.15183273 0.017174043 0.11601768 -0.017073184 0.13224518 0.11014002 0.07410523
-0.08848621 0.15530147 -0.06753384 -0.1501902 0.040315993 -0.029644646 0.03556083 0.10679726
0.051421393 -0.111356646 0.010416581 0.09598131 -0.107699566 -0.16286635 0.15922886 0.15948874
0.04179917 -0.08175779 -0.10531328 -0.021711681 0.15890838 0.1274064 -0.05975253 -0.18594842
-0.12194297 0.1380181 0.16266745 0.12944761 -0.04594512 -0.10627745 -0.0014948383 -0.020550387

backbone.encoder.mlp_mixer_encoder.mixers.0.feature_mixer.norm.norm.bias f4 [16]
00000000: 9852 39bc 9a22 9fbb dcc3 a23b a8f2 313c
00000010: dccc 2bbc 6b76 43bc b588 3f3c f489 24bc
00000020: 8f2e ea3b 3404 303c 7b29 3e3c b1af 2a3c
00000030: c099 3c3c d3db 3ebc 1ae7 1bbc ce12 32bc
-0.011311196 -0.0048564197 0.004967196 0.010861076 -0.010485854 -0.0119300885 0.011690308 -0.010042656
0.0071466635 0.01074319 0.011606569 0.010417865 0.011511266 -0.01164909 -0.009515548 -0.010868741

backbone.encoder.mlp_mixer_encoder.mixers.0.feature_mixer.norm.norm.weight f4 [16]
00000000: 5755 813f 400c 813f 8a33 7e3f 846a 813f
00000010: fd2c 813f e772 813f 62a1 813f 39b9 7d3f
00000020: 9d3d 813f c462 813f 3f64 813f b7c2 7d3f
00000030: 9675 813f 34db 7f3f f7ae 7d3f 1a97 813f
1.0104169 1.0081863 0.9929739 1.0110631 1.0091854 1.011319 1.0127375 0.9911075
1.0096928 1.0108266 1.0108718 0.99125236 1.0114009 0.9994385 0.990951 1.0124238

backbone.encoder.mlp_mixer_encoder.mixers.0.patch_mixer.gating_block.attn_layer.bias f4 [8]
00000000: fde7 143e 6574 fd3c c3b2 dd3d cd96 11be
00000010: b9c8 a23e 06fa 53bd d9d2 4b3e 072e 843e
0.14541622 0.03093929 0.10825112 -0.14217682 0.31793764 -0.051752113 0.19904651 0.25816366

backbone.encoder.mlp_mixer_encoder.mixers.0.patch_mixer.gating_block.attn_layer.weight f4 [8, 8]
00000000: ccd8 95be 6c53 90bb b32f 4a3e 4e4d 063e
00000010: 54c9 e1bd a595 6b3e 2dd2 a73d d099 93be
00000020: 6926 59be c481 aabe 2702 fdbb 47b9 a8be
00000030: f80b 683e 53a8 59be 4f3d 06be 1f3e bb3d
00000040: 7874 783e 926b febd 5b79 a73e 1d28 60be
00000050: 3f87 763d c39f 38bd 5a8b abbe 36aa d43d
00000060: bd12 623e 0dba a8be 6ee0 09be 055d 1b3d
00000070: 464b d13d 885e 6fbe e704 92be 99e6 bcbd
00000080: 523b 943e 9b02 a0be d5b4 a83d 56ae 02be
00000090: 80ff b2be a838 0a3e b34c 293e 4cf9 bbbd
000000a0: cde3 81be d277 85be 4c61 b7bd 4c8c 8f3e
000000b0: 875d d73c f764 813e e34b b43d 3c07 b5be
000000c0: 8d1e 9e3e e4b7 103e 638b 9cbe f7e9 7a3d
000000d0: 4e4e ec3d a57b abbe bc1f 3fbe 95b5 b4bd
000000e0: 6e0d dcbd 4baf 77bd 80a5 d33d 553f 29be
000000f0: 8df0 6bbe 8f7a 703e db89 af3e 90d9 713d
-0.29266965 -0.004404476 0.19744758 0.13115427 -0.110247284 0.23006304 0.08194385 -0.28828287
-0.21206059 -0.33302128 -0.007721204 -0.32953855 0.22660816 -0.21255617 -0.13109325 0.09142708
0.2426318 -0.12422861 0.32709774 -0.21890302 0.060187574 -0.045074236 -0.33504754 0.10384028
0.2207746 -0.32954445 -0.1346452 0.037930507 0.102194354 -0.23375905 -0.28519365 -0.092236705
0.28951508 -0.31251988 0.08237616 -0.12761816 -0.34960556 0.13498175 0.16533165 -0.09178409
-0.2536911 -0.26067978 -0.08954105 0.28036726 0.026289715 0.25272343 0.08803537 -0.35357082
0.30882683 0.14132649 -0.30575094 0.061258283 0.11538373 -0.3349277 -0.1866445 -0.088236965
-0.10744749 -0.060469907 0.10334301 -0.16528066 -0.23040982 0.23484252 0.34284863 0.059045374

backbone.encoder.mlp_mixer_encoder.mixers.0.patch_mixer.mlp.fc1.bias f4 [16]
00000000: bc24 2dbe fee9 043e 8f04 91be f51e 273e
00000010: c97c 6ebe 1a48 02bc f26d 973e 31fa 293e
00000020: ee70 ae3a 466a 2c3e ff1b 053e e3ed 76bd
00000030: 3fad 583e 7bc8 adbe ebdf 7e3d 2d79 25bd
-0.16908544 0.12979886 -0.2832379 0.16320403 -0.2328979 -0.007951761 0.2957607 0.16599347
0.0013308802 0.16837415 0.12998961 -0.06028546 0.21159838 -0.33942017 0.062225264 -0.040398765

backbone.encoder.mlp_mixer_encoder.mixers.0.patch_mixer.mlp.fc1.weight f4 [16, 8]
00000000: 3d08 083e 251a 52bd 9777 4abe 1ca8 ebbd
00000010: f634 4abe 23dd 213e ba0b 563e 042e 223e
00000020: b900 7abe a1f5 7fbe 69f9 94be a1db 07be
00000030: 8fa0 8abe d92f 57be 86d4 2f3e 7747 523c
00000040: d233 46bd 4c9b 523d b523 1fbe 8bc1 533e
00000050: 0f81 433e f19c a8be db34 2d3e e177 9dbe
00000060: 8263 b03e 0cbf 8abe b391 6a3e b71c 6dbe
00000070: 29b1 41be 0669 8f3d fc39 6e3e 6e39 23be
00000080: 1a3f a53e 89c0 2c3d 22c0 a7be 142d 6abe
00000090: 3dff 633e 155a a33e 9225 e63d 5c1a 363d
000000a0: 57b8 afbe 00e6 8f3e ba10 4bbd 0045 0c3a
000000b0: 7b92 c4bd 2207 9c3e ad5e a43e 25cd 9ebe
000000c0: 690b b23e 8f2a 6bbd db21 3b3d a30b c63d
000000d0: f995 e5bd a49d a9be bea1 3a3d 246a dfbd
000000e0: febf 63be 2769 b93e 470e c3bd 5b6f aabe
000000f0: c5db aa3e e14c a93e 7812 6a3e 4070 683e
00000100: b109 b0be 7a71 ae3e e8b6 16be d9bf 8e3e
00000110: f777 78be bc53 a3be 8a9e 9a3e 7e32 8fbe
00000120: 98fb 433d 8a47 0f3e eb4d b6be ad72 42be
00000130: 9a87 623b e88d 81bc d597 80be 2599 2a3e
00000140: fa2c 49bc 55ce a73e b527 ab3d c61c 6ebe
00000150: 34bf 8abe a15a 633e 2eb6 2a3e 5993 13bd
00000160: 1e94 163e 7695 89be be47 54bd 88e0 883e
00000170: d1e1 893e d857 b83e 62e1 15be 0e5d 4bbe
00000180: eb6c 1cbe 6d87 613e 6bd0 673e 9959 a83e
00000190: fb26 df3d 6244 bc3d a138 3fbe 0c83 383d
000001a0: f600 e1bd 49b6 083d 2042 89be 0ea0 f6bd
000001b0: 3993 42be 0c72 6d3a 7d6f 9c3e d2b4 c23c
000001c0: 911d 39be 0f7f 89be a536 27be fd13 163c
000001d0: f931 903e 1a0f 6bbe b621 863d 4539 8c3e
000001e0: 9b7f 06be df4c 9fbe 983c 69be a0dd 0dbe
000001f0: 2817 8d3d 1d6d a33e c6dc a3be a6bc 343e
0.13284393 -0.051294465 -0.19772182 -0.11506674 -0.19746765 0.15807013 0.20902911 0.15837866
-0.24414338 -0.24996044 -0.29096535 -0.13267376 -0.2707562 -0.21014346 0.17170915 0.012834421
-0.048389263 0.051417634 -0.15540965 0.206793 0.190922 -0.32932237 0.16914694 -0.30755523
0.34450918 -0.27098882 0.22907142 -0.23155485 -0.18915237 0.070024535 0.23264307 -0.15939876
0.32274705 0.042175803 -0.32763773 -0.22868758 0.22265334 0.31904665 0.11237635 0.044458732
-0.34320328 0.28105164 -0.0495765 0.0005350858 -0.095982514 0.30474192 0.32103482 -0.31015888
0.3477433 -0.057413634 0.045686584 0.09670188 -0.11210246 -0.33128083 0.045564406 -0.109089166
-0.22241208 0.36213037 -0.095242076 -0.33288082 0.33370796 0.33066466 0.22858608 0.2269907
-0.34382394 0.3407095 -0.1471821 0.27880743 -0.24264513 -0.31899822 0.3019908 -0.2796821
0.04784736 0.13992134 -0.35606322 -0.18989058 0.0034565688 -0.015814736 -0.2511584 0.16659983
-0.01227879 0.32774606 0.08357183 -0.23253164 -0.27099 0.22202541 0.16671059 -0.036029194
0.1470494 -0.26871842 -0.05182623 0.26733804 0.26930097 0.3600452 -0.14636758 -0.19859716
-0.15275924 0.22024317 0.22638099 0.32880858 0.10896107 0.091927305 -0.18673946 0.04504685
-0.109865114 0.033376966 -0.26808262 -0.12042247 -0.19001473 0.0009057827 0.3055381 0.023767862
-0.18077685 -0.2685475 -0.16329439 0.009160039 0.28163126 -0.2295498 0.065493986 0.27387443
-0.13134615 -0.31113335 -0.22777021 -0.13854074 0.06889182 0.31919184 -0.32004374 0.17650089

backbone.encoder.mlp_mixer_encoder.mixers.0.patch_mixer.mlp.fc2.bias f4 [8]
00000000: b047 3b3e 458b 0a3d 97b2 c53c 59a1 3f3e
00000010: 46a9 91bd d413 f73c fec0 88bb 55fb 153e
0.18289065 0.033824224 0.02413301 0.18713893 -0.071123645 0.030160822 -0.004173397 0.14646657

backbone.encoder.mlp_mixer_encoder.mixers.0.patch_mixer.mlp.fc2.weight f4 [8, 16]
00000000: 1e9e c33d 9408 f4bd 34ed 9b3d 10f8 bb3d
00000010: 5796 7cbe d996 94bd d446 4ebd 52bf f73d
00000020: 01a6 493e 5434 2bbe eec6 59bd a084 dbbd
00000030: 45a0 34bd 6398 94bd e68d 57be 60a1 803b
00000040: 208c bbbb e1e3 0bbe b651 6b3d 59ac 013e
00000050: 845d babd e7e7 00be a2c0 76be b836 1abe
00000060: 7960 6ebe ad60 9b3d 99c7 2a3e d740 e2bd
00000070: 7206 7fbe 24fb 833e ec76 a53d 2f28 ff3d
00000080: 91f0 54bd c041 eabd 540b 79be 9453 663e
00000090: fe3f 273e 73d3 61bd 9c35 f0bc 1646 123e
000000a0: 6f78 3c3e d65f 433e 7e92 ab3d e041 803e
000000b0: 5a90 ef3d bd6f 043e fbbd 993d e075 6e3e
000000c0: de1d e2bd b1ca 2abe fa8d 303d 63e1 753e
000000d0: 5cbc 5dbe e9fb edbd c9a9 883d 3615 8ebd
000000e0: 0d7d 0abe 5990 4abe f174 84bc e8f1 75bd
000000f0: fce0 133d 609d 403e 99b7 a83d 6cc1 45be
00000100: fc86 6a3e ed2b fabc 46ac 3ebe 960f 83bd
00000110: 16c4 c83d 2f69 533e 0f30 503e d227 b13d
00000120: 761c 56be c12c 70be 11b5 103e ecbe 6e3e
00000130: f96f 50be 1ae9 3a3e 32fb 543e b6d1 1a3e
00000140: e2ce 72be 5d07 64be b7a7 03bd 1345 37be
00000150: 1ead 7fbe 8451 3abe 1d1d 053e 84e5 3f3e
00000160: 4051 163e a46c c13d 3905 0bbe c0ec 91bc
00000170: e227 083e 2ebb 633e e722 d7bd 1020 893d
00000180: cdde ed3d a740 95bd d1b4 853d 753f eebb
00000190: ba93 803e 6b3a 593a dcd5 413e 1724 6cbe
000001a0: 323f 263e 5eac 52be 306c 27be 4285 a8ba
000001b0: 96b9 383d c905 30bd 6555 c8bd 59f5 563e
000001c0: 7dff 49be 90e9 c2bc 92c5 21be 73c4 453e
000001d0: 1a85 b0bd 7745 5a3c f865 09be a0ba 1b3e
000001e0: 6d5e 66be 063c 253e d762 a5bd eaa8 e7bd
000001f0: c810 1c3e 53e6 b9bd fdeb 633e 9d4a 0e3e
0.09551643 -0.11915699 0.07613602 0.091781735 -0.24666725 -0.072553344 -0.050360516 0.12097038
0.19692232 -0.1671918 -0.05316823 -0.107186556 -0.044098157 -0.07255628 -0.21050224 0.0039254874
-0.0057234913 -0.13661148 0.057450972 0.12663402 -0.09099868 -0.12588464 -0.24096921 -0.15059936
-0.23278989 0.07586799 0.16677703 -0.110475235 -0.24904802 0.25777543 0.08079323 0.12458836
-0.051987235 -0.11438322 -0.24320728 0.2249282 0.16333005 -0.055133294 -0.029322438 0.14284548
0.18405317 0.19079527 0.083775505 0.2505026 0.11697455 0.1293325 0.07506939 0.23287153
-0.11040853 -0.16678883 0.04310415 0.2401176 -0.21653885 -0.11620314 0.06673009 -0.069376394
-0.13524266 -0.19781627 -0.016169043 -0.060045153 0.036103234 0.18810034 0.082381435 -0.19312066
0.22903055 -0.030538524 -0.18620405 -0.06399457 0.098030254 0.20645593 0.20330833 0.08650173
-0.20909294 -0.23454572 0.14131571 0.23315018 -0.20355214 0.18252984 0.20798948 0.15119061
-0.23711732 -0.22268434 -0.032142367 -0.17897443 -0.24968383 -0.18195158 0.12999387 0.18739897
0.14679432 0.0944455 -0.13576211 -0.017813087 0.13296464 0.22239372 -0.10504704 0.066955686
0.116147615 -0.07287722 0.065286286 -0.0072707483 0.25112706 0.0008286598 0.18929237 -0.23060642
0.16235045 -0.20573565 -0.16349864 -0.0012857097 0.045098864 -0.042974267 -0.09781913 0.2099203
-0.19726367 -0.023793012 -0.15798023 0.1931322 -0.08619137 0.013322226 -0.13417804 0.1520791
-0.22496958 0.16136178 -0.08075493 -0.11311515 0.15240777 -0.09077134 0.22257991 0.1389565

backbone.encoder.mlp_mixer_encoder.mixers.0.patch_mixer.norm.norm.bias f4 [16]
00000000: 8ed5 343c 7a35 1a3c 17cf 283c 8931 823a
00000010: 20d0 183c 5e4e dc3b 805b 183c 9b8a 2ebc
00000020: 5708 163c 1274 2fbc 1643 9c3b 2170 43bc
00000030: d03e 283c 2b67 0abc 256e 1a3c 28c0 22bc
0.0110372435 0.009412164 0.01030328 0.0009932976 0.009326965 0.0067232093 0.009299159 -0.010653163
0.009157262 -0.010708826 0.0047687395 -0.011928589 0.010268882 -0.008447449 0.009425675 -0.009933509

backbone.encoder.mlp_mixer_encoder.mixers.0.patch_mixer.norm.norm.weight f4 [16]
00000000: 7061 813f cd01 7f3f 5987 7e3f 0b20 803f
00000010: a4e2 7d3f b224 7f3f 2b1d 7f3f dacc 7d3f
00000020: 7d0d 813f 6065 7d3f 3d4a 7e3f 7082 813f
00000030: 0d5b 813f ff87 813f ab51 813f 27fb 7d3f
1.010786 0.9961212 0.99425274 1.0009779 0.9917395 0.9966537 0.9965388 0.99140704
1.0082241 0.9898281 0.9933203 1.0117931 1.0105911 1.0119628 1.0103048 0.99211353

backbone.encoder.mlp_mixer_encoder.mixers.1.feature_mixer.gating_block.attn_layer.bias f4 [16]
00000000: 2785 1abd 2092 44bd 3199 c1bd 6880 f3bd
00000010: f412 e1bc 2869 67be db06 e73d 8446 1abe
00000020: 02d2 95bd 25c5 9b3d 4459 44be dceb 0f3d
00000030: fa30 e2bd c81e 1f3e e680 553e 0ed8 07be
-0.03772464 -0.04799092 -0.09453047 -0.11889726 -0.027474858 -0.22598708 0.112806045 -0.15065962
-0.073154464 0.07605962 -0.19174677 0.035137042 -0.11044498 0.15539086 0.20849952 -0.13266012

backbone.encoder.mlp_mixer_encoder.mixers.1.feature_mixer.gating_block.attn_layer.weight f4 [16, 16]
00000000: ffa6 a7bc d599 233b 86c8 6fbb d184 3dbe
00000010: 7ae5 32be c554 b63d 9e30 1f3c d0c3 043d
00000020: 84c0 033d 4d9e 38be 8e4f 3fbd 55ee f23c
00000030: 0804 2bbe 1fd4 07be 7d1b 00be 71e8 943d
00000040: e7c6 40be 5563 783e 2acc 493e e92c 323e
00000050: fe4d bdbd 08b2 72be f159 5a3c c381 e6bd
00000060: 72be 3bbe 9619 26be 7db3 3c3d a7d5 173e
00000070: 43ee c13d e3a4 233d 7159 093e 2401 0a3e
00000080: 4f1d 473e 1426 7e3e 062e 30be 9bbe 713e
00000090: 2b88 033e b8a1 d33d 565a 6f3e 6fed 31be
000000a0: f283 bc3d 1620 aa3d dea2 5c3e bdbe 07be
000000b0: 89ee 283e 71dd ebbc 2c8a 3a3e f373 753e
000000c0: e5b8 1b3d cf16 71be d114 4d3e 267f 9bbd
000000d0: 7fff aa3c f2b4 c53c edd7 c9bd 26f1 71be
000000e0: c40f 423e d2ed 933d 4c25 033d 9795 52be
000000f0: 86bf 073e 521b 83bd 2ab5 fc3d 3299 39be
00000100: b4ca 17be 24aa 19be 2384 113e 0653 97bd
00000110: 8280 333e 8a4b 57be 494e 6e3d 1088 48bd
00000120: 7921 0ebe 6b0d 6ebe 2753 833e 6455 d4bc
00000130: e8c9 3bbc 53bb d73b 7609 b6bd a81d 5fbe
00000140: 1b10 313e 156f 1a3e fd3e 703e f9c5 4abe
00000150: 0bde 423d f176 5cbe 4c95 2e3e 8c3f 1dbe
00000160: 576f d6bd 8645 1dbe 5825 cabd 6f8a 6b3e
00000170: 1714 d8bd 5604 14be 0c17 29be a60b 7ebe
00000180: 0256 89bb c54d 283e fc2d 993d 8cf2 d23c
00000190: 6192 ed3d 3ba4 3bbe 2eac 6bbe 92c8 073e
000001a0: 4f0d 19be ead8 70be 977a d23c 0467 023e
000001b0: a16b 0b3e a143 c23d d90f 213e 9075 59bd
000001c0: 8f13 e53c 76f0 7f3e 5545 3fbc 2049 333c
000001d0: 124c 5c3e 1999 ecbd 7533 be3d ef45 a23d
000001e0: 3ce1 aa3d 0bfe fa3d 6cc0 e33c faf9 2bbd
000001f0: f23c 033e 1c63 2bbe 16ce 2f3e b513 763e
00000200: 8c8a 383e cc8f b2bd 7808 78be 3f3b 02bd
00000210: 246b 64be e301 5dbe 917b ebbd e48a 7ebe
00000220: f012 5fbe ccd6 7d3d baf0 21be bbf9 1f3d
00000230: d5dd 20be fb51 56be 8aef 0b3e db92 04be
00000240: 1ed7 27bc 8701 ff3d bc4e 95bd 5e74 cd3a
00000250: bb2a 733e fdcb e3bc 362a 493d 9bb6 01be
00000260: 2562 343e 604e 053c 6c45 65be 6ff5 703e
00000270: 351e 383e 51ba 393e bf00 5cbe 8c2a 683e
00000280: 9b2c 3d3e 94bc 033e 379c 21be 14fe 46be
00000290: 0484 0c3d ff9a 2fbd 6e88 f8bd b791 3fbe
000002a0: 8c38 c8bd 9571 0bbe dd81 b5bd 4f27 e0bd
000002b0: 66c5 16bc d498 edbb 09e6 b03d 5b09 6b3e
000002c0: f0b3 2ebe 9aba 35be 69bb cf3d 1f54 893d
000002d0: 687f 4d3c 1da1 c63d 3eea a73c 03ff 58be
000002e0: 297a 303e c765 62bd ba6f 59be 8880 80be
000002f0: db81 a0bd 1125 12be cd97 0dbe 820e 00be
00000300: b3cf 36bd c8a7 4dbe a762 94bd 1617 723e
00000310: dc77 e7bd 65ef c83c 131e 47be ced1 703e
00000320: 625d efbc ab43 083d e561 63be 781f 493e
00000330: 57f1 663e 1ce7 413e 37e6 76be bd7b 0dbe
00000340: 6ee6 48bd cc7f 8d3d d164 6e3e 9090 3c3e
00000350: 8599 4b3e c3a7 32be 271c 53bd ee0b 533e
00000360: e409 2b3e 4b86 103e c814 1e3e 73b6 0ebe
00000370: 7245 aa3d 59c5 2b3d dd65 83bd 11f1 10bd
00000380: 3334 68be c7d7 30be 0659 d6bd 308f 6b3d
00000390: e218 26be 7dc9 7e3e af68 46bd c869 76bc
000003a0: 93f9 d33d 4192 063e 7750 953d 1924 16bc
000003b0: fb25 29be 5e00 ba3d 3840 963d b00b 393e
000003c0: fc3a 4a3d 21f6 42bd 9cc6 593d f386 34be
000003d0: 4ea2 293e 71a7 9f3d 4332 d0bd b344 3cbe
000003e0: 3c31 e73b a01f 9bbb bb21 47be 17a6 67be
000003f0: 73d8 1f3e 00ad a0bd 658c 4ebe cae5 a83c
-0.020465372 0.0024963517 -0.0036588027 -0.18507697 -0.17470351 0.08902887 0.009716181 0.032413304
0.03216602 -0.18029137 -0.04670673 0.029654661 -0.16700757 -0.13264512 -0.12510486 0.07270897
-0.18825875 0.24256642 0.19706789 0.17399944 -0.092433915 -0.23700726 0.013327108 -0.11255219
-0.18334368 -0.16220698 0.04606961 0.14827596 0.09469273 0.03995217 0.13413025 0.13476998
0.19444774 0.24819213 -0.17205057 0.23607866 0.12844913 0.1033358 0.23374304 -0.1737573
0.09204854 0.08306901 0.21546504 -0.13256355 0.16497244 -0.028792115 0.18216771 0.23970012
0.038018126 -0.23543857 0.20027472 -0.07592611 0.020873783 0.024134133 -0.09855638 -0.23627147
0.18951327 0.07223095 0.03201799 -0.20564876 0.13256654 -0.06401695 0.12339242 -0.18124846
-0.14823419 -0.1500631 0.14210562 -0.07388882 0.1752949 -0.2102491 0.058180127 -0.048957884
-0.13879956 -0.23247306 0.25649378 -0.025919624 -0.011461712 0.00658361 -0.08888523 -0.21788657
0.172913 0.15081437 0.23461528 -0.19802083 0.047575038 -0.21529748 0.1704914 -0.15356272
-0.10470455 -0.15358552 -0.09870404 0.23002027 -0.10550707 -0.14454779 -0.16512698 -0.24809131
-0.004191161 0.16435917 0.07479474 0.025750421 0.11600185 -0.18324368 -0.230149 0.13260105
-0.14946483 -0.23520246 0.025693221 0.1273461 0.13615276 0.094855554 0.15728702 -0.053090632
0.027963428 0.24994072 -0.011674245 0.010942727 0.21513394 -0.115526386 0.092871584 0.07923495
0.08343741 0.12255486 0.027801715 -0.041986443 0.12816218 -0.16737026 0.1716846 0.24030955
0.18021601 -0.08718833 -0.2422198 -0.031794783 -0.22306496 -0.21582751 -0.11498178 -0.2485767
-0.21784568 0.061972424 -0.15814486 0.03905652 -0.15709622 -0.2092971 0.13665596 -0.12946646
-0.010244159 0.12451463 -0.07290408 0.0015674939 0.23746769 -0.02780723 0.04911252 -0.12667315
0.17615564 0.008136362 -0.22389764 0.23531125 0.17980273 0.1813748 -0.2148466 0.2267248
0.18474047 0.12864906 -0.15782247 -0.1943286 0.034305587 -0.042872425 -0.12135397 -0.1870793
-0.097764105 -0.13617547 -0.0886266 -0.109449975 -0.009202337 -0.0072508845 0.08637626 0.22952788
-0.17060828 -0.17746964 0.101431675 0.06705498 0.012542583 0.09698699 0.020497438 -0.21191029
0.172341 -0.055272844 -0.21234027 -0.25098062 -0.07837268 -0.14271952 -0.13827439 -0.12505534
-0.04463167 -0.20083535 -0.07245379 0.23641619 -0.11302158 0.024528215 -0.19445066 0.23517534
-0.029219333 0.03326766 -0.22205313 0.1964091 0.22553001 0.18935817 -0.24111257 -0.13816734
-0.04904788 0.06909141 0.23280646 0.18414521 0.19882782 -0.17446809 -0.05154052 0.2061002
0.16702992 0.14113729 0.15437615 -0.13936786 0.08314027 0.041936252 -0.06415913 -0.03538615
-0.22676162 -0.17269813 -0.104661986 0.0575096 -0.1622043 0.24881549 -0.048439678 -0.015039869
0.10350337 0.13141729 0.07290738 -0.00916388 -0.16518395 0.09082101 0.073364675 0.18070865
0.049372658 -0.047598008 0.053167924 -0.17629604 0.1656582 0.07795609 -0.10165837 -0.18385582
0.0070554297 -0.0047339946 -0.19446461 -0.22621952 0.15609913 -0.07845497 -0.20170744 0.020617384

backbone.encoder.mlp_mixer_encoder.mixers.1.feature_mixer.mlp.fc1.bias f4 [32]
00000000: ad03 6d3e 44ef 87bd 5478 febc fd4c 2abe
00000010: a8f8 1b3d faf8 7a3d e998 1c3c cd02 9bbd
00000020: 5749 693e e47a 07be db13 2b3e a2ec fbbb
00000030: 273f a03c 71bb dcbd 89dc d6bd 1434 6cbe
00000040: f0fe b2bd 8741 71be af05 c03b 0ea8 11be
00000050: 27c7 1bbe abe7 4b3d 318f 873d ee94 673e
00000060: ec1c 743e ff24 373e 81f6 36be 1020 61be
00000070: 9fbe 21be 0d59 7dbe fbc8 bb3d 4a09 e0bd
0.23145933 -0.06637433 -0.031063236 -0.16630931 0.038078934 0.0612726 0.009557941 -0.075688936
0.22781883 -0.13230473 0.16706793 -0.007688121 0.019561363 -0.10777939 -0.104912825 -0.23066741
-0.08740032 -0.23560153 0.0058600525 -0.14224264 -0.1521269 0.049781483 0.066191085 0.22615406
0.23839158 0.17885207 -0.17867471 -0.21984887 -0.15795372 -0.24741001 0.09169193 -0.10939272

backbone.encoder.mlp_mixer_encoder.mixers.1.feature_mixer.mlp.fc1.weight f4 [32, 16]
00000000: df76 633e c871 003e c885 57be f475 c1bd
00000010: c1f4 dc3d 6a32 1cbe 65bc 83bd c311 7d3d
00000020: 121b c03c 4153 e3bd ebbf 1ebe 194f 4dbe
00000030: 623c 24bd c881 5f3d aee7 65be 8f22 60bd
00000040: 9dfe 413e a7fd 083e 373c 5ebe d36a 3ebe
00000050: dda9 193e 4272 5b3e fe7a 413e f557 3ebe
00000060: 1eb2 8d3d c6f6 4b3d a2e3 46be a2ab 7fbd
00000070: 79d4 3d3d dcd8 a8bc d727 53be bee0 0cbe
00000080: 8c46 e1bd b13a 7cbe 316a 423e c11d 37be
00000090: 7d6c af3c ce08 a7bd cd4d 38be 0b7f 75be
000000a0: 81c7 143e 6eb8 da3d 1ccc 133e b8f0 59bd
000000b0: e0f2 b5bd 5a66 0abe fc45 783d 4dd8 803d
000000c0: 0430 3fbd 3969 86bd 3948 a03b a495 0f3e
000000d0: c14e 0a3e 7664 0f3e 149e 53be bb83 eabd
000000e0: 44b3 68bc 2efa 33be 533c 75bc 29bb 1d3e
000000f0: fc8f 7c3e f1f2 9d3d f30c 3abe a2d1 ab3d
00000100: 9f21 b6bd 0cea fbbd 4962 623e c02f 913a
00000110: 7b04 a63d 31dd 34bd 3af5 693b 4442 093e
00000120: 86ba c2bd cb81 fdbd e5ff f4bd d743 563e
00000130: 1a90 713e 9532 b83c 1296 79be 45af 923d
00000140: aff8 0a3e 2839 3f3e 948f 5e3d 57f7 2d3d
00000150: 96f6 33be f277 43bd 5377 293e c9fb 34bd
00000160: 1a24 0f3e 7b75 5a3e e985 073e 74e3 f63d
00000170: 35cb 063e 3662 3e3e 27ee f23d 2f88 2a3e
00000180: d0f5 193d 5184 2d3e 20e0 2bbd e779 32be
00000190: 57ba 88bd 771c 063e 4fed 0cbe ed6a bdbc
000001a0: d298 063e 7b66 84bc d58f 64be a1f6 4abe
000001b0: d1ef d7bd 9119 2abe e721 3f3d 222f 103e
000001c0: d3b2 bcbd a33e 593c 8e6e 4dbe eb31 2cbe
000001d0: ea65 203e 9120 983d 3ccc 483d d0df c5bc
000001e0: 4b5b f73d 15c5 a3bd af24 683e 8826 753e
000001f0: b832 ee3d 8770 1fbe ad08 623e 3efa 82be
00000200: 782f 6abe 1734 80be 0a8b 593e e25e 29be
00000210: cc5b a23d 49f8 593e f0d7 c3bd 393a 073e
00000220: f37a 30be b4c6 173d 062c 80be 3715 53bd
00000230: 09f7 fc3c 0f17 233c 8da7 6f3e 7918 53bd
00000240: 12e6 743e 7c0a cbbc 0e93 fa3d bb44 023e
00000250: 2ab1 b2bd 8408 c8bd dbf6 633e 3346 56be
00000260: e543 7fbe b104 ac3c ae0c 633e e965 063e
00000270: 79e3 fd3d 7cb3 383e 20e2 debd 4133 26bd
00000280: 3478 8a3d 62ed 803e f45a aa3d d882 45bd
00000290: 7a17 2e3d 93c5 663e 07d1 4abd 74f4 01be
000002a0: 04c4 e0bd dcc2 f83d 65f2 f2bd 52f8 e93c
000002b0: 1d58 c83d 6065 19be c353 743e dac1 413e
000002c0: d3cc 0cbe baa1 573e a5c2 7fbd e6da 6f3d
000002d0: 91d8 dabd e2bc 62be 755d 68be a4a5 6d3e
000002e0: 1033 073d e523 20be 9232 27be 9fa2 0abe
000002f0: 2b40 ef3d e438 46be d866 10be 2992 f33d
00000300: afe0 66be 5d52 ac3b 8764 c9bd ad79 523d
00000310: 53c7 1f3c 0681 4dbe b55e a63d 13ff 3e3e
00000320: 78dc c03d 25fd b9bd a4e0 48bd 6622 f03d
00000330: a219 22be 50ed 5abe 775b ab3d eccc e5bd
00000340: 61c6 793b bae2 f03d e5fe 653e b1cb c43c
00000350: 4dc2 25bd dba4 323e c7ff 75be cba5 e63c
00000360: d1b7 a73d 6210 3f3d 69ca 38be d859 903d
00000370: 8378 41be 2c78 973d 3ad2 8b3d 61e3 0bbe
00000380: 4cfd 58be f7a6 14be a1c2 90bb c0ec 7b3d
00000390: 63fc 443e d69d 0b3e 445f 1dbe 4360 febd
000003a0: 4fe2 a33d c0aa aebd 7b35 0f3e dd7c 36be
000003b0: 42f0 6ebd 46c0 29be 8bc5 93bd 8c81 063d
000003c0: 2e05 ff3d 3a32 5c3e 86fa 47be 0006 d63d
000003d0: 79a5 6a3e 255c 60be f0ee 7b3d cc60 0d3e
000003e0: e879 96bd f8c4 b83c c8d8 a93d 7b03 4abe
000003f0: ea35 3fbc 2471 59be 78bc 9abd 9d92 3a3e
0.22213314 0.12543404 -0.21047127 -0.09446326 0.107888706 -0.15253606 -0.06432418 0.061784517
0.023450408 -0.11099864 -0.15502898 -0.20049705 -0.040096648 0.05456713 -0.2245166 -0.054720458
0.18944784 0.1337801 -0.21702658 -0.18595438 0.15006204 0.21430305 0.18894574 -0.1858824
0.06918739 0.04979589 -0.19422773 -0.06241954 0.046345208 -0.02061122 -0.20620666 -0.13757607
-0.10999784 -0.24631764 0.18985821 -0.17882444 0.021414036 -0.08155976 -0.17998429 -0.23974244
0.1452923 0.106797084 0.1443333 -0.053208083 -0.08884215 -0.13515607 0.060613617 0.06291256
-0.04667665 -0.065630384 0.004891422 0.14021927 0.13506605 0.14003167 -0.20665771 -0.11450907
-0.0142028965 -0.17575905 -0.014967996 0.15403427 0.246643 0.07712353 -0.18169002 0.08389594
-0.088931315 -0.123005 0.22107805 0.0011076853 0.08106323 -0.044156257 0.0035699145 0.13404185
-0.09508233 -0.12378272 -0.119628705 0.20924316 0.23590127 0.022485057 -0.24373654 0.07162336
0.13571428 0.18674147 0.054336146 0.04247221 -0.17574534 -0.04772181 0.16549425 -0.044185434
0.13978615 0.21333878 0.13234676 0.12055102 0.13163455 0.18592152 0.1186183 0.16653512
0.03758794 0.16945006 -0.04196179 -0.17429315 -0.066761665 0.13096796 -0.13762401 -0.023122275
0.13144234 -0.016162148 -0.22320493 -0.19820644 -0.10543788 -0.16611315 0.04666319 0.1408048
-0.092137955 0.013259563 -0.20061705 -0.16815917 0.15663877 0.074280865 0.049022898 -0.024154574
0.120779596 -0.07996575 0.22670244 0.2394048 0.116307676 -0.1557027 0.22073622 -0.25581545
-0.2286967 -0.2503974 0.21244445 -0.16540101 0.07927665 0.2128612 -0.09562671 0.13205804
-0.17234401 0.037054732 -0.25033587 -0.051533904 0.030879514 0.009954228 0.2340376 -0.05153701
0.2391589 -0.024785273 0.1223508 0.12721531 -0.087251976 -0.09767249 0.22262137 -0.20925216
-0.24928243 0.02099833 0.22172806 0.13124813 0.123969026 0.18037218 -0.10882974 -0.040576223
0.06761208 0.2518111 0.08318129 -0.048220485 0.042502858 0.22536306 -0.04951575 -0.12690908
-0.10974887 0.121465415 -0.11862639 0.028560791 0.09782431 -0.14980078 0.23860078 0.18921605
-0.13750009 0.21057788 -0.062441487 0.058558367 -0.10685838 -0.22142366 -0.22691901 0.23207718
0.03300768 -0.15638693 -0.16327885 -0.13538598 0.11682161 -0.1935764 -0.14101732 0.11893112
-0.22546647 0.005258842 -0.09833627 0.05138557 0.009752112 -0.2006875 0.08123533 0.1865199
0.09417051 -0.090814866 -0.04904236 0.11725311 -0.1583009 -0.2137959 0.08367055 -0.11220726
0.0038112628 0.11761995 0.22460516 0.024022909 -0.040468503 0.174457 -0.24023353 0.028155228
0.08189357 0.046646483 -0.18045963 0.07048386 -0.18893628 0.07395968 0.06827207 -0.13660957
-0.21190375 -0.14516817 -0.004417733 0.06150508 0.19236903 0.13634428 -0.15368372 -0.12420704
0.08002149 -0.08528662 0.13985245 -0.17821069 -0.058334596 -0.16577253 -0.07215413 0.03283839
0.1245216 0.21503535 -0.19529161 0.10450363 0.22914685 -0.2191015 0.061507165 0.13806456
-0.073474705 0.02255486 0.08293301 -0.1972789 -0.011670569 -0.21234566 -0.07555479 0.18219991

backbone.encoder.mlp_mixer_encoder.mixers.1.feature_mixer.mlp.fc2.bias f4 [16]
00000000: 59e0 193e 416b f83d e670 b53b 74f3 6fbc
00000010: 08ae 0fbe 11a5 303e bf41 70bc 6613 68bd
00000020: 6553 033d 3a11 9b3d 1e2d 0dbe 12d4 cfbc
00000030: 636f 23be 1a86 e83b 6869 933d f6ec 6f3d
0.15026988 0.12129832 0.00553714 -0.014645446 -0.14031231 0.17250468 -0.014664113 -0.056659125
0.032061953 0.07571645 -0.13786742 -0.025369678 -0.1596046 0.0070960643 0.07197839 0.058575593
