test_output/checkpoint-23/model.safetensors (safetensors, 153912 bytes, 182 tensors)

backbone.encoder.mlp_mixer_encoder.mixers.0.feature_mixer.gating_block.attn_layer.bias f4 [16]
-0.22765012 0.08637476 0.14274739 -0.20052275 -0.0074305646 -0.07877192 0.066686496 -0.21144487
0.043330446 -0.057866555 0.23317316 0.011954298 -0.19084959 -0.023043023 0.20800717 0.025590261
00000000: 1d1d 69be 40e5 b03d 5f2c 123e d655 4dbe
00000010: 187c f3bb 2c53 a1bd ee92 883d 0185 58be
00000020: 447b 313d 7b05 6dbd f2c4 6e3e f6db 433c
00000030: 136e 43be b9c4 bcbc d5ff 543e aba2 d13c

backbone.encoder.mlp_mixer_encoder.mixers.0.feature_mixer.gating_block.attn_layer.weight f4 [16, 16]
0.19536696 -0.22627008 0.10139048 -0.22723557 0.057673797 0.010007912 -0.1322181 -0.02369481
0.12140632 -0.08327843 -0.1343956 0.06892401 0.0928026 0.023678493 -0.00978449 0.23145251
0.037657235 -0.17745055 -0.083089784 0.15736142 0.05423964 -0.20440923 0.13378316 0.2312193
0.12745276 0.05938441 -0.07059887 0.23579197 0.06307871 0.1896285 -0.14499412 -0.108161665
0.047075726 -0.1885788 -0.23393278 0.1924338 0.18847956 -0.1123212 -0.065627255 -0.06477414
-0.09832662 0.07215446 0.04887201 -0.07230004 0.14408322 -0.1410311 -0.20254093 0.23257549
-0.022044437 0.14323857 0.18118371 0.10560463 0.23207884 0.23529927 0.15606171 0.22546694
-0.17848347 -0.14748439 0.12648262 -0.2319935 0.19836128 -0.06812369 -0.12601614 -0.1659113
-0.043423653 -0.19753815 0.029778238 -0.13883325 -0.09109053 0.001019842 0.17972709 0.05121655
0.16415343 -0.14433466 -0.14668812 0.12994878 0.090695135 -0.17136168 -0.0671161 0.10133847
0.15362145 0.1373165 -0.11329424 0.16822207 -0.120826825 -0.1420836 -0.2148506 0.10869739
0.06296323 -0.03158676 0.0036950277 0.20624615 -0.212158 -0.025254656 -0.03372198 -0.027472679
-0.21886449 0.20529008 -0.11807774 -0.24684475 0.17219199 -0.0888772 -0.092764534 0.07169579
-0.13368006 0.1896015 0.19481397 0.09099741 -0.10258713 0.018639214 0.086657844 -0.13321564
-0.09669079 0.22081907 -0.13786113 0.13817863 -0.060567003 -0.2354501 0.13052128 -0.046817455
0.21712418 -0.19134182 -0.054433722 0.11843712 0.04529617 -0.13915749 0.21671046 0.059171494
-0.16721697 -0.011015261 0.1321133 -0.19443837 0.14771573 -0.049818438 0.22169882 -0.2356544
0.09400324 0.06827178 0.10360627 0.0016583021 0.24196967 0.18387492 0.13586837 -0.10104048
0.23156734 0.048109204 0.048212007 -0.0021559102 -0.1527213 0.14488891 0.24074505 -0.23285764
0.2066093 0.12814596 0.19866095 0.09002715 0.1822026 -0.031833842 -0.18800665 -0.17958122
-0.08986078 0.07455491 -0.06608977 0.05639038 -0.23262148 0.20303468 -0.20412156 0.07500647
-0.1695941 -0.2112881 -0.21592695 0.24439156 -0.23960094 0.057326104 -0.17898543 -0.03261013
0.23056722 0.23899172 -0.09706098 -0.005968918 -0.097472176 -0.106333755 -0.2198558 0.019009016
0.02148759 0.09226924 -0.03550818 -0.08982159 0.055498958 0.15841764 -0.13060166 -0.011886192
0.1651058 0.07702147 -0.21215923 0.1763394 -0.020439273 0.090643495 0.1460774 -0.23795438
0.032456283 -0.1904564 -0.11902115 0.08539446 -0.16084518 0.044735517 -0.13727047 -0.09276021
0.121499486 0.11200279 -0.030657088 0.10532717 -0.22683477 -0.114053056 0.15890206 -0.067163505
0.14261411 -0.16514955 -0.0314317 -0.16019852 -0.14229445 0.09468006 0.22618105 -0.21419281
-0.23111883 0.06970316 0.081056885 -0.105119966 -0.049031977 0.0003242506 0.18601769 0.051888254
0.036275953 -0.054860774 -0.22896193 -0.14267431 0.2237998 0.13505033 -0.0034228296 0.06378947
0.19760911 0.0398526 0.21794929 0.056467686 -0.04980234 0.10997381 -0.21398981 0.19530508
0.005053399 -0.070673555 0.032296438 -0.23836067 0.24905017 0.10283823 -0.15413363 0.19473977
00000000: 470e 483e 58b3 67be d0a5 cf3d 71b0 68be
00000010: 5c3b 6c3d 3af8 233c 2e64 07be 9e1b c2bc
00000020: e0a3 f83d e28d aabd 009f 09be 0828 8d3d
00000030: 4a0f be3d 66f9 c13c 204f 20bc e301 6d3e
00000040: 793e 1a3d 99b5 35be fa2a aabd 5a23 213e
00000050: 622a 5e3d a750 51be 74fe 083e c1c4 6c3e
00000060: fa82 023e 113d 733d 2496 90bd 7373 713e
00000070: 692f 813d f92d 423e 5779 14be dd83 ddbd
00000080: 7ad2 403d cd1a 41be 138c 6fbe 5e0d 453e
00000090: c900 413e a808 e6bd 9567 86bd 4ea8 84bd
000000a0: 785f c9bd b8c5 933d 042e 483d 0b12 94bd
000000b0: 8d8a 133e 756a 10be e466 4fbe 4528 6e3e
000000c0: 8996 b4bc 22ad 123e 3988 393e 3e47 d83d
000000d0: 13a6 6d3e 4bf2 703e a4ce 1f3e cee0 663e
000000e0: 5fc4 36be 2606 17be a984 013e b48f 6dbe
000000f0: 381f 4b3e 6f84 8bbd 600a 01be a7e4 29be
00000100: 00dd 31bd 7147 4abe 7ef1 f33c 4e2a 0ebe
00000110: ac8d babd 38ac 853a 610a 383e 72c8 513d
00000120: d617 283e 77cc 13be 6935 16be 4b11 053e
00000130: 5fbe b93d 7079 2fbe 2a74 89bd 8b8a cf3d
00000140: f14e 1d3e b29c 0c3e cf06 e8bd 6842 2c3e
00000150: 0e74 f7bd 5d7e 11be cc01 5cbe bd9c de3d
00000160: def2 803d 1e61 01bd 4728 723b 3132 533e
00000170: f23f 59be dae2 cebc 0f20 0abd 620e e1bc
00000180: 031e 60be 9037 523e bed2 f1bd dfc4 7cbe
00000190: 1953 303e 4005 b6bd 55fb bdbd 3ed5 923d
000001a0: 6de3 08be e526 423e 507d 473e da5c ba3d
000001b0: 3419 d2bd 44b1 983c ab79 b13d ae69 08be
000001c0: d205 c6bd 651e 623e 782b 0dbe b37e 0d3e
000001d0: 1b15 78bd d519 71be 5fa7 053e a9c3 3fbd
000001e0: cd55 5e3e 1cef 43be e5f5 5ebd 298f f23d
000001f0: 7a88 393d 4d7f 0ebe 59e9 5d3e cf5d 723d
00000200: ed3a 2bbe 5a79 34bc b548 073e da1a 47be
00000210: cb42 173e 6b0e 4cbd 0405 633e 634f 71be
00000220: c584 c03d 13d2 8b3d 862f d43d 635b d93a
00000230: e6c6 773e b549 3c3e 1421 0b3e 50ee cebd
00000240: fd1f 6d3e 280e 453d f479 453d 2c4a 0dbb
00000250: f962 1cbe c25d 143e df85 763e 3c72 6ebe
00000260: 6391 533e b238 033e c76d 4b3e 2860 b83d
00000270: 5293 3a3e 3464 02bd d184 40be 24e4 37be
00000280: ee08 b8bd 3fb0 983d 135a 87bd 99f9 663d
00000290: 5334 6ebe 53e8 4f3e 3e05 51be fe9c 993d
000002a0: 13aa 2dbe e85b 58be f41b 5dbe c841 7a3e
000002b0: f359 75be c7ce 6a3d f547 37be 3392 05bd
000002c0: d019 6c3e 3fba 743e e8c7 c6bd ea96 c3bb
000002d0: 7e9f c7bd 83c5 d9bd e121 61be ccb8 9b3c
000002e0: be06 b03c a8f7 bc3d 0671 11bd 62f4 b7bd
000002f0: e052 633d 3c38 223e 71bc 05be 4dbe 42bc
00000300: 7f11 293e 6fbd 9d3d 4540 59be 5192 343e
00000310: 4370 a7bc 4ca3 b93d 5095 153e 50aa 73be
00000320: e1f0 043d 0107 43be 5cc1 f3bd 4ae3 ae3d
00000330: 99b4 24be 973c 373d a190 0cbe 11f9 bdbd
00000340: b9d4 f83d b861 e53d 9324 fbbc c5b5 d73d
00000350: 6047 68be a694 e9bd 39b7 223e 058d 89bd
00000360: 6f09 123e f71c 29be 87be 00bd 150b 24be
00000370: a3b5 11be 9fe7 c13d 019c 673e 5c55 5bbe
00000380: 6aaa 6cbe 88c0 8e3d 2701 a63d 2349 d7bd
00000390: c1d5 48bd 2e00 aa39 6c7b 3e3e c788 543d
000003a0: 1896 143d b1b5 60bd ff74 6abe 3719 12be
000003b0: c62b 653e a24a 0a3e 8d51 60bb 0ea4 823d
000003c0: 0b5a 4a3e 7b3c 233d 192e 5f3e a94a 673d
000003d0: 8afd 4bbd f339 e13d 2520 5bbe 0efe 473e
000003e0: fc96 a53b 4cbd 90bd 4549 043d d214 74be
000003f0: 0207 7f3e da9c d23d 35d5 1dbe dd69 473e

backbone.encoder.mlp_mixer_encoder.mixers.0.feature_mixer.mlp.fc1.bias f4 [32]
-0.1508686 -0.16481046 -0.1932583 0.12648351 0.06693289 0.0016234139 0.17935134 -0.0875635
0.06838104 -0.03238658 -0.17686851 -0.061809793 -0.23888677 -0.0058860946 -0.12823655 -0.06521605
-0.12493723 -0.04979267 0.00535124 0.07305256 0.012083961 0.038910188 -0.12965317 -0.05773518
-0.057026073 -0.22080536 -0.16486457 -0.010966023 0.057054553 -0.14555302 -0.22505769 -0.2344851
00000000: 4c7d 1abe 13c4 28be 81e5 45be e584 013e
00000010: 1c14 893d bbc8 d43a e1a7 373e 7e54 b3bd
00000020: 5c0b 8c3d caa7 04bd 051d 35be 442c 7dbd
00000030: bc9e 74be 24e0 c0bb 7150 03be fe8f 85bd
00000040: 17df ffbd 66f3 4bbd 7459 af3b 959c 953d
00000050: cefb 453c 4a60 1f3d cdc3 04be b97b 6cbd
00000060: 2c94 69bd cd1a 62be 42d2 28be d6aa 33bc
00000070: 09b2 693d da0b 15be 8675 66be dd1c 70be

backbone.encoder.mlp_mixer_encoder.mixers.0.feature_mixer.mlp.fc1.weight f4 [32, 16]
-0.18343684 0.0528305 0.12481186 0.2157854 -0.11601832 -0.23674966 -0.071862616 0.21001555
-0.18864077 -0.21450873 -0.15019944 -0.18970814 -0.13515867 0.18518548 -0.16869862 -0.047164958
-0.010481342 0.036667917 0.24704283 -0.1299568 0.22174175 0.12253 0.24376354 0.23873867
0.083085485 -0.14426 0.18129013 -0.1838198 0.033235934 -0.11850609 0.08539633 -0.11324758
0.0057471534 -0.21944328 -0.13837208 -0.19904831 0.11870312 -0.23846011 -0.035028454 -0.20653413
0.06969069 -0.07050891 -0.23460673 -0.117836565 0.031068347 0.2354718 0.18172269 -0.1262863
-0.18979871 -0.08131117 -0.16551991 -0.22605872 -0.23431179 -0.21107423 -0.006910502 0.13512881
-0.19556174 -0.14619967 -0.11016483 -0.24924798 0.034701537 -0.065455094 0.14403553 -0.20267667
0.17645966 -0.22006604 0.19553275 0.15854913 -0.16313449 0.16758995 0.06626918 -0.10146193
0.084976435 -0.088599615 -0.035555523 0.23516081 0.09147808 0.22078165 -0.24529855 -0.20809783
-0.105656415 0.19803417 0.15517989 -0.047492277 0.13147265 0.048346013 0.15763304 -0.08892847
-0.24637339 -0.10492187 -0.122059755 -0.0018210051 -0.07709315 -0.20657459 0.19477047 -0.14908749
0.11148772 -0.0141951665 0.21550667 0.0816427 0.19644138 -0.121727444 -0.0663651 0.12249522
-0.09845602 -0.022933329 -0.2183139 -0.030084359 0.17136362 0.20448585 0.066163845 0.035791922
-0.029856538 0.13944463 0.16596429 0.2216479 -0.037257075 -0.16982788 0.13998516 -0.11359585
-0.07045307 0.15182987 0.030708203 -0.08433412 0.101200856 0.24603212 0.06536967 0.17559052
-0.16441737 0.24025474 0.05071574 0.17997013 0.13231513 0.17820461 -0.12783253 0.09478963
0.13319153 -0.014243197 0.2414666 0.20500834 -0.13196869 -0.0791006 0.13878493 0.042620618
0.22347112 0.24648614 0.08064101 -0.1125206 0.065210596 0.062296376 -0.081437744 -0.07353964
-0.038384993 0.24097243 0.1671001 0.08003507 0.07812815 -0.10687076 -0.098492876 -0.16880244
0.009279795 0.09344761 0.017532857 -0.1591045 0.19188781 0.14648187 0.034634385 0.07512987
-0.20919134 -0.033074323 0.14664018 -0.06675713 -0.08262903 0.046059575 -0.17183058 -0.13134855
0.16568461 -0.068462044 -0.1905751 -0.18306294 0.13121167 0.15025577 -0.23204204 0.046236157
-0.02669955 0.08799554 0.17760046 -0.031238673 -0.056307454 0.12344514 0.22373725 0.1061552
0.20706575 -0.1914888 0.02671064 0.22513887 0.060700856 -0.14840515 -0.16606656 -0.16391245
-0.1563698 0.22777668 -0.15252453 -0.22934084 0.17484869 0.07364544 0.2258199 0.23431945
0.15180002 0.105117604 -0.07172749 -0.14296378 0.09528466 0.07536709 -0.054064453 -0.13214062
-0.059027348 -0.013651696 0.083802834 -0.194797 -0.16918002 0.24763024 0.038612884 0.11985516
0.0357694 -0.24370682 0.14904885 -0.21698752 0.22625099 -0.036023162 -0.13619524 0.11612798
-0.058518596 0.16289197 0.030281791 0.029947974 -0.020353878 -0.19414742 0.20179848 0.18588002
-0.0753471 -0.078033604 -0.119928755 0.07984562 -0.0021240127 -0.09794175 -0.16702761 -0.22631568
0.10528446 0.062839486 0.14085108 -0.08814709 0.015021229 0.08280138 0.243498 0.08755778
00000000: ded6 3bbe cb64 583d 5c9d ff3d d9f6 5c3e
00000010: 039b edbd 816e 72be b52c 93bd 510e 573e
00000020: 0c2b 41be 2da8 5bbe e2cd 19be da42 42be
00000030: 0967 0abe 43a1 3d3e 55bf 2cbe 0b30 41bd
00000040: efb9 2bbc 1931 163d ccf8 7c3e 6513 05be
00000050: 4510 633e 02f1 fa3d 269d 793e e977 743e
00000060: b928 aa3d e5b8 13be 1fa4 393e 423b 3cbe
00000070: 6722 083d 52b3 f2bd 45e4 ae3d 59ee e7bd
00000080: 9e52 bc3b bdb5 60be 69b1 0dbe 52d3 4bbe
00000090: 9f1a f33d e32e 74be ff79 0fbd af7d 53be
000000a0: feb9 8e3d fa66 90bd bf3c 70be 4c54 f1bd
000000b0: 0c83 fe3c 851f 713e 8315 3a3e 3251 01be
000000c0: 985a 42be 7886 a6bd 0d7e 29be f07b 67be
000000d0: 6eef 6fbe d823 58be 7e71 e2bb 355f 0a3e
000000e0: 5641 48be 5eb5 15be 199e e1bd dd3a 7fbe
000000f0: 3323 0e3d 520d 86bd 0d7e 133e 798a 4fbe
00000100: d7b1 343e fe58 61be bd39 483e b45a 223e
00000110: ba0c 27be b39c 2b3e 23b8 873d 46cb cfbd
00000120: 2008 ae3d b773 b5bd aba2 11bd ffcd 703e
00000130: dc58 bb3d 9614 623e 8b2f 7bbe 9917 55be
00000140: 6462 d8bd 78c9 4a3e 7ae7 1e3e 4387 42bd
00000150: c4a0 063e 7806 463d 8e6a 213e 2120 b6bd
00000160: 4e49 7cbe 47e1 d6bd 77fa f9bd cbae eeba
00000170: 03e3 9dbd 4a88 53be e971 473e 64aa 18be
00000180: ac53 e43d d892 68bc c8ad 5c3e 4a34 a73d
00000190: ee27 493e 3d4c f9bd 6dea 87bd c6de fa3d
000001a0: 4fa3 c9bd adde bbbc ae8d 5fbe 7973 f6bc
000001b0: f279 2f3e bd64 513e e980 873d 8d9a 123d
000001c0: b395 f4bc 93ca 0e3e 8bf2 293e abf7 623e
000001d0: e09a 18bd 5ce7 2dbe 4558 0f3e f1a4 e8bd
000001e0: b349 90bd 4a79 1b3e c58f fb3c 5eb7 acbd
000001f0: 6542 cf3d d8ef 7b3e 89e0 853d 00ce 333e
00000200: 075d 28be 5705 763e 4fbb 4f3d 174a 383e
00000210: 9e7d 073e 457b 363e 88e6 02be 1121 c23d
00000220: 5c63 083e 4c5c 69bc 0543 773e b5ed 513e
00000230: cd22 07be 7fff a1bd a31d 0e3e f592 2e3d
00000240: 9dd5 643e dd66 7c3e 1d27 a53d 3371 e6bd
00000250: 228d 853d 7c2a 7f3d d5c8 a6bd f39b 96bd
00000260: 9539 1dbd 7ac1 763e 4a1c 2b3e 6de9 a33d
00000270: a701 a03d 0fdf dabd a2b6 c9bd 8cda 2cbe
00000280: 480a 183c 7661 bf3d 11a1 8f3c 4aec 22be
00000290: 3d7e 443e 58ff 153e c9dc 0d3d b0dd 993d
000002a0: 4136 56be f178 07bd d828 163e f6b7 88bd
000002b0: 6939 a9bd f7a8 3c3d 5bf4 2fbe 3c80 06be
000002c0: 3aa9 293e d435 8cbd 1e26 43be da74 3bbe
000002d0: 5a5c 063e a6dc 193e 6e9c 6dbe 2062 3d3d
000002e0: 04b9 dabc 0137 b43d e5dc 353e 3fe8 ffbc
000002f0: a5a2 66bd ced0 fc3d 611b 653e e667 d93d
00000300: 0b09 543e a415 44be 46d0 da3c ce8a 663e
00000310: 76a1 783d 85f7 17be 5a0d 2abe aad8 27be
00000320: 681f 20be 4a3e 693e 642f 1cbe 53d8 6abe
00000330: 890b 333e 6cd3 963d 553d 673e 70f1 6f3e
00000340: 7771 1b3e e647 d73d dde5 92bd 1965 12be
00000350: 9b24 c33d 105a 9a3d b072 5dbd df4f 07be
00000360: a9c6 71bd 5dab 5fbc d2a0 ab3d dd78 47be
00000370: 873d 2dbe c892 7d3e 8b28 1e3d 9f76 f53d
00000380: ef82 123d 488e 79be 43a0 183e fa31 5ebe
00000390: 57ae 673e 068d 13bd c476 0bbe 82d4 ed3d
000003a0: 32b1 6fbd 27cd 263e 8511 f83c 7455 f53c
000003b0: 2dbd a6bc 95ce 46be 43a4 4e3e 5557 3e3e
000003c0: 954f 9abd 15d0 9fbd 359d f5bd 1a86 a33d
000003d0: 0533 0bbb af95 c8bd 4909 2bbe 4cbf 67be
000003e0: 619f d73d fdb1 803d 443b 103e 7686 b4bd
000003f0: 9a1b 763c c593 a93d 8a57 793e 7e51 b33d

backbone.encoder.mlp_mixer_encoder.mixers.0.feature_mixer.mlp.fc2.bias f4 [16]
-0.03277887 0.024255782 -0.12124199 -0.060852025 -0.10299411 0.1251409 0.1480544 0.15772237
-0.1170982 0.037064746 0.060187794 0.03190494 0.1576778 -0.0738815 0.04743189 0.124626026
00000000: 2343 06bd 10b4 c63c b84d f8bd f93f 79bd
00000010: 93ee d2bd f024 003e 939b 173e f981 213e
00000020: 2ed1 efbd 34d1 173d 7a87 763d c1ae 023d
00000030: 4a76 213e 2f4f 97bd f147 423d ee3b ff3d

backbone.encoder.mlp_mixer_encoder.mixers.0.feature_mixer.mlp.fc2.weight f4 [16, 32]
0.15425159 0.055892907 -0.06971597 -0.01848143 0.057399724 -0.12856103 -0.15781806 0.119270094
-0.12399833 -0.00978985 0.085750006 -0.1514976 0.078533515 -0.0563327 0.06499706 0.12791722
-0.1730222 0.14865465 0.1766123 0.17613854 -0.086615436 0.07042691 0.17257695 0.021607924
-0.06484995 -0.062132385 0.030959532 -0.1319477 -0.15091601 -0.14145444 0.039335538 0.07774107
-0.09952664 -0.055455618 0.10024824 -0.023263045 -0.14165932 -0.07234486 -0.09986412 0.17052677
0.12366722 0.05265707 -0.06427078 0.09532512 -0.081386484 0.14939012 0.0065514953 -0.14083183
0.14291716 0.16001265 -0.030819036 0.09299575 0.0432948 -0.0416635 0.1620473 -0.16471545
-0.083658606 0.049958084 0.16111617 -0.16907373 -0.12169861 0.14455193 0.07189875 0.0599942
-0.07184007 0.17318475 -0.16400075 0.13021146 0.01226596 -0.02627207 -0.072083846 -0.0535475
0.071599625 0.13432394 0.07474324 -0.006540004 -0.15010707 0.09140796 -0.010976708 -0.07506467
0.16917261 -0.010114787 -0.13262087 0.12231227 -0.14066993 -0.078302085 -0.07689712 -0.053412076
0.032390587 -0.08577047 0.15031883 0.14368133 -0.17396529 -0.13846004 0.09897211 0.071841255
0.10908728 -0.023389978 -0.063534275 -0.049348027 -0.13931563 0.05887366 -0.019875795 0.022327807
0.053901378 -0.08491314 -0.0021420515 -0.1284144 -0.050625168 0.15185753 -0.17277019 0.08694274
0.07125643 -0.14161862 -0.030147558 0.15704694 -0.00079227926 0.08979386 0.12858136 0.042702574
-0.14877729 -0.17359798 0.09888746 -0.019359343 -0.08731009 -0.12633438 0.09052201 0.14657585
0.15852737 0.16490862 0.090379514 -0.09733401 0.103840485 -0.015033672 0.008307897 -0.027269796
-0.08525998 -0.13306434 -0.004543814 0.0035832573 -0.17028697 0.03697694 0.022606561 -0.15309049
-0.060929865 -0.0998452 0.068270706 0.1300315 -0.07331336 -0.05501369 0.08677152 -0.13154927
0.16580907 -0.095316984 -0.15377824 0.17653286 0.1072042 -0.10720222 -0.16426097 -0.03378438
-0.12754768 -0.11111842 0.1607551 -0.055734158 0.022202672 -0.070261 -0.09644537 0.05718379
-0.13627028 -0.013553012 -0.13863616 0.032891277 -0.044193108 -0.00587239 -0.0585136 -0.013968036
0.0024239498 0.11455271 -0.1562616 -0.16510095 0.036777925 0.103608854 -0.07596908 -0.054281384
0.011235456 0.14609721 -0.14978692 -0.124611944 -0.10465095 0.12654208 -0.049750686 -0.14760938
-0.06141922 -0.10887564 -0.021557806 -0.08057101 -0.12505746 0.06773694 0.109880604 -0.12521096
-0.17171311 0.0653046 -0.054853708 -0.13977985 0.17168614 0.1520176 -0.13835505 -0.16726927
0.0076071927 -0.09804248 -0.11456392 0.090603285 0.03402637 0.1437353 0.0018053908 -0.049814403
0.027549233 -0.04459128 0.116662465 0.11650293 -0.037010964 -0.16864997 -0.16260943 0.10473085
-0.03854295 0.029955298 0.0709848 0.15232548 0.060226567 0.093652084 -0.14743567 0.0028143183
-0.00638908 -0.00887469 0.06729302 0.11348276 -0.082756884 0.14094701 0.10594724 -0.038678862
-0.018579608 -0.06312233 0.16090299 0.1064103 -0.16558267 -0.108605705 0.103179485 0.08734296
-0.10821165 0.038137715 -0.08281365 -0.010123428 -0.07444266 -0.021256035 -0.12461131 -0.11521291
00000000: 21f4 1d3e f6ef 643d 3fc7 8ebd 5e66 97bc
00000010: f91b 6b3d 81a5 03be 0f9b 21be e143 f43d
00000020: d6f2 fdbd 9b65 20bc b39d af3d 3022 1bbe
00000030: 2ed6 a03d 1ebd 66bd 2e1d 853d bbfc 023e
00000040: bb2c 31be ed38 183e dbd9 343e a95d 343e
00000050: 6f63 b1bd fc3b 903d 03b8 303e 1a03 b13c
00000060: 0dd0 84bd 877e 7ebd d89e fd3c 4c1d 07be
00000070: ba89 1abe 6fd9 10be 4d1e 213d b636 9f3d
00000080: 9fd4 cbbd 6e25 63bd f34e cd3d 2492 bebc
00000090: 240f 11be 8b29 94bd 8f85 ccbd 929e 2e3e
000000a0: 3d45 fd3d f1ae 573d 66a0 83bd d139 c33d
000000b0: f5ad a6bd b9f9 183e edad d63b 3836 10be
000000c0: e058 123e 5bda 233e 3478 fcbc 8e74 be3d
000000d0: e355 313d 59a7 2abd baef 253e 2bab 28be
000000e0: 3455 abbd d9a0 4c3d a3fb 243e aa21 2dbe
000000f0: 1f3d f9bd 6c05 143e a73f 933d 7abc 753d
00000100: e320 93bd 5857 313e d0ef 27be 2756 053e
00000110: 2af7 483c 8638 d7bc b2a0 93bd a054 5bbd
00000120: d3a2 923d 378c 093e fc12 993d 884d d6bb
00000130: abb5 19be 1934 bb3d a6d7 33bc 81bb 99bd
00000140: 963b 2d3e 7eb8 25bc c4cd 07be db7e fa3d
00000150: c70b 10be d85c a0bd 3d7c 9dbd 9fc6 5abd
00000160: feab 043d 6ea8 afbd 2eed 193e 3321 133e
00000170: f523 32be 78c8 0dbe e4b1 ca3d 8221 933d
00000180: 2769 df3d 579c bfbc 421e 82bd 2821 4abd
00000190: c2a8 0ebe 8225 713d 90d2 a2bc cee8 b63c
000001a0: b1c7 5c3d f1e6 adbd a961 0cbb 117f 03be
000001b0: 565c 4fbd 8a80 1b3e abea 30be 090f b23d
000001c0: e4ee 913d 7904 11be 03f8 f6bc ead0 203e
000001d0: f6b0 4fba d8e5 b73d d5aa 033e e5e8 2e3d
000001e0: 1359 18be abc3 31be 8285 ca3d 7c97 9ebc
000001f0: a2cf b2bd cd5d 01be 9b63 b93d fb17 163e
00000200: 0055 223e cedd 283e e518 b93d 0e57 c7bd
00000210: 52aa d43d ca4f 76bc d81d 083c e864 dfbc
00000220: c99c aebd 0542 08be 46e4 94bb 15d5 6a3b
00000230: b55f 2ebe 2275 173d 6531 b93c c1c3 1cbe
00000240: 9891 79bd a47b ccbd 83d1 8b3d fa26 053e
00000250: 5125 96bd 0956 61bd 44b5 b13d dab4 06be
00000260: dac9 293e 8d35 c3bd 0b78 1dbe 08c5 343e
00000270: e08d db3d d68c dbbd 0734 28be 7d61 0abd
00000280: dc9b 02be 0e92 e3bd fc9c 243e 8049 64bd
00000290: 61e2 b53c 00e5 8fbd 2685 c5bd 8d39 6a3d
000002a0: 708a 0bbe 740d 5ebc a3f6 0dbe 01b9 063d
000002b0: d503 35bd 2d6d c0bb f5ab 6fbd 30da 64bc
000002c0: 21db 1e3b 9c9a ea3d 0a03 20be 3910 29be
000002d0: 73a4 163d e130 d43d ad95 9bbd 2856 5ebd
000002e0: eb14 383c 829a 153e be61 19be 8c34 ffbd
000002f0: 3d53 d6bd 3f94 013e 60c7 4bbd ea26 17be
00000300: b892 7bbd 31fa debd ff99 b0bc 6a02 a5bd
00000310: 100f 00be aab9 8a3d 1509 e13d 4d37 00be
00000320: 90d5 2fbe 6bbe 853d 48ae 60bd 7322 0fbe
00000330: 7ece 2f3e 80aa 1b3e f2ac 0dbe a348 2bbe
00000340: c245 f93b 7fca c8bd 7da0 eabd 378e b93d
00000350: 3c5f 0b3d 592f 133e dda2 ec3a 300a 4cbd
00000360: eeae e13c 59a5 36bd bbec ee3d 1799 ee3d
00000370: cf98 17bd 94b2 2cbe 1683 26be 217d d63d
00000380: 36df 1dbd d064 f53c 7b60 913d 36fb 1b3e
00000390: 22b0 763d aacc bf3d 60f9 16be 6d70 383b
000003a0: 7d5b d1bb 2667 11bc ecd0 893d a669 e83d
000003b0: 717c a9bd 6a54 103e defa d83d ba6d 1ebd
000003c0: 4334 98bc 4846 81bd c1c3 243e a5ed d93d
000003d0: 818e 29be ab6c debd c44f d33d dee0 b23d
000003e0: 129e ddbd 4b36 1c3d 349a a9bd bcdc 25bc
000003f0: 6575 98bd 2321 aebc 3734 ffbd bff4 ebbd

backbone.encoder.mlp_mixer_encoder.mixers.0.feature_mixer.norm.norm.bias f4 [16]
0.00010883753 0.00013459017 -0.00017147188 0.00025991927 0.00011811784 -0.00014785635 -0.00028708205 -0.00016290689
0.00014836327 0.00027539307 -0.000231854 -0.00010800433 8.856641e-05 7.619449e-05 -5.2069256e-05 0.00019639183
00000000: b43f e438 c620 0d39 22cd 33b9 c645 8839
00000010: 08b6 f738 e309 1bb9 8083 96b9 fcd1 2ab9
00000020: f691 1b39 a262 9039 d61d 73b9 6280 e2b8
00000030: bbbc b938 9bca 9f38 f064 5ab8 88ee 4d39

backbone.encoder.mlp_mixer_encoder.mixers.0.feature_mixer.norm.norm.weight f4 [16]
0.99995583 0.9998507 0.9997926 0.99987966 1.0001472 1.000182 0.99976164 1.0001196
1.0001987 0.99997425 1.000059 1.000076 1.0001273 0.999922 0.9999978 0.9997871
00000000: 1bfd 7f3f 37f6 7f3f 68f2 7f3f 1df8 7f3f
00000010: d304 803f f705 803f 61f0 7f3f eb03 803f
00000020: 8306 803f 50fe 7f3f ef01 803f 7e02 803f
00000030: 2c04 803f e3fa 7f3f dbff 7f3f 0cf2 7f3f

backbone.encoder.mlp_mixer_encoder.mixers.0.patch_mixer.gating_block.attn_layer.bias f4 [8]
-0.017525204 -0.085674345 -0.29603872 -0.15016957 0.12897246 0.17655857 -0.30205703 -0.18151745
00000000: 0491 8fbc 0876 afbd 6392 97be 0dc6 19be
00000010: 5b11 043e c5cb 343e 38a7 9abe b6df 39be

backbone.encoder.mlp_mixer_encoder.mixers.0.patch_mixer.gating_block.attn_layer.weight f4 [8, 8]
0.16026278 -0.22378276 -0.026285829 -0.0063772355 -0.3009505 0.14745052 -0.013618526 0.12397087
-0.045638785 0.09514421 0.23049042 -0.3257903 -0.33071777 0.2965924 -0.18505727 -0.060927678
0.008068649 0.33862725 -0.1643221 0.075716466 0.28233808 0.016401693 0.032920323 -0.027095156
-0.02327011 0.09129308 -0.15873463 0.24140674 0.21237355 0.3195766 0.24161777 0.29835293
0.050657447 0.058114268 -0.0343996 0.16381522 -0.063884236 0.1487256 0.19736338 0.19786121
-0.102067694 -0.09354323 0.33452496 -0.14458638 -0.02734301 -0.24562746 0.11497212 -0.275401
0.05452088 0.33988014 -0.051051915 -0.11508803 -0.11974436 -0.17677112 -0.07286202 0.2599178
0.07360016 -0.032301426 -0.0333619 0.07244036 0.3388907 0.3474789 -0.19000669 0.114746764
00000000: ed1b 243e 4f27 65be 6155 d7bc 21f8 d0bb
00000010: 2f16 9abe 45fd 163e 3d20 5fbc 71e4 fd3d
00000020: bcef 3abd f8da c23d ae05 6c3e fccd a6be
00000030: d753 a9be f6da 973e a77f 3dbe 4d8f 79bd
00000040: 5e32 043c 8d60 ad3e 0d44 28be 3c11 9b3d
00000050: 9e8e 903e d85c 863c 76d7 063d a9f6 ddbc
00000060: f5a0 bebc def7 ba3d 558b 22be 5433 773e
00000070: 7478 593e 8b9f a33e a66a 773e b7c1 983e
00000080: 2f7e 4f3d 3a09 6e3d 98e6 0cbd 2dbf 273e
00000090: bdd5 82bd 864b 183e a019 4a3e 219c 4a3e
000000a0: de08 d1bd 9893 bfbd db46 ab3e 740e 14be
000000b0: 73fe dfbc c485 7bbe 8176 eb3d 5c01 8dbe
000000c0: 4951 5f3d c504 ae3e d01b 51bd 46b3 ebbd
000000d0: 883c f5bd 7d03 35be af38 95bd f213 853e
000000e0: aebb 963d 804e 04bd 7da6 08bd 9d5b 943d
000000f0: 1583 ad3e c1e8 b13e 1d91 42be 5a00 eb3d

backbone.encoder.mlp_mixer_encoder.mixers.0.patch_mixer.mlp.fc1.bias f4 [16]
0.18897744 0.11638992 0.28169185 0.22746955 -0.06669999 -0.08841338 -0.33717108 -0.004662126
0.33219093 0.077827245 -0.09806272 0.29291782 -0.04457535 -0.32362342 -0.24177174 -0.13876612
00000000: 4d83 413e d75d ee3d ea39 903e c7ed 683e
00000010: 019a 88bd 1312 b5bd b0a1 acbe bfc4 98bb
00000020: ee14 aa3e e463 9f3d 1bd5 c8bd 53f9 953e
00000030: a494 36bd f8b1 a5be 0393 77be b518 0ebe

backbone.encoder.mlp_mixer_encoder.mixers.0.patch_mixer.mlp.fc1.weight f4 [16, 8]
-0.2221395 -0.1516388 0.26172325 -0.080878675 0.30481556 0.1521833 -0.24017778 -0.10624695
0.34134224 0.27007347 0.06411536 -0.14034586 0.18546204 0.31962487 -0.34270015 0.26632103
-0.23185977 -0.08994358 -0.1446351 0.06891897 -0.13433428 0.13767971 -0.33717594 0.20620033
-0.35161346 -0.21451545 0.15158308 0.039886042 0.30180442 0.036723636 -0.15723829 0.049609788
-0.13334538 -0.12883562 -0.14413948 -0.074356206 -0.041657243 -0.19310555 -0.20237833 -0.10374292
-0.28543192 0.12441214 0.12952068 0.03368112 -0.096479416 -0.06561674 0.23937836 -0.32319486
0.19484231 0.12607871 0.04081707 -0.28362224 -0.3051453 0.19460016 -0.3186491 0.12841883
0.2530014 0.2135265 -0.27660695 0.0716863 -0.14658472 -0.14113823 -0.29784015 -0.28242964
0.03567116 0.10077796 0.08888123 -0.09498444 0.14887443 -0.02307809 -0.27580288 0.042260498
-0.03830557 -0.09119441 0.3168982 -0.22374806 -0.07810852 0.16910367 -0.23403738 0.00991218
0.23454626 -0.18631788 0.19709213 -0.30038512 -0.11849836 -0.1630497 -0.17228852 -0.28499347
-0.08007869 -0.11486681 -0.10655546 -0.16987512 0.03963066 0.22742122 -0.28281137 -0.054752294
0.001585419 -0.29537338 0.31978667 0.13139173 0.06579355 0.01404053 -0.1926723 0.06869945
-0.225322 0.20312886 0.19364493 -0.025564585 -0.18162094 0.24536726 0.18147267 0.19781722
-0.15945274 0.022539862 0.11223683 0.12287657 0.03873062 0.040910892 -0.019214202 0.094431266
-0.039218575 -0.28393742 0.007655866 0.11263674 0.23483068 -0.3267354 0.07394414 0.17179826
00000000: 8978 63be 3447 1bbe 9700 863e b8a3 a5bd
00000010: c910 9c3e f0d5 1b3e 2af1 75be 0098 d9bd
00000020: 69c4 ae3e 1247 8a3e ea4e 833d d3b6 0fbe
00000030: c3e9 3d3e dfa5 a33e 6576 afbe 3b5b 883e
00000040: a66c 6dbe 5734 b8bd 391b 14be 6425 8d3d
00000050: ed8e 09be e9fb 0c3e 53a2 acbe 2e26 533e
00000060: ae06 b4be f0a9 5bbe 9838 1b3e 8c5f 233d
00000070: 1c86 9a3e 866b 163d 1303 21be a233 4b3d
00000080: b18b 08be 7ced 03be 4d99 13be 1148 98bd
00000090: c9a0 2abd 76bd 45be 443c 4fbe 2b77 d4bd
000000a0: 2224 92be cbcb fe3d 12a1 043e 37f5 093d
000000b0: 0097 c5bd 1262 86bd 9a1f 753e cc79 a5be
000000c0: be84 473e c71a 013e cd2f 273d ef36 91be
000000d0: 013c 9cbe 4445 473e fa25 a3be 3a80 033e
000000e0: 6689 813e b1a6 5a3e 6d9f 8dbe 44d0 923d
000000f0: 4e1a 16be 8a86 10be 817e 98be 9e9a 90be
00000100: ec1b 123d ad64 ce3d 5d07 b63d 3487 c2bd
00000110: 8a72 183e 430e bdbc 0936 8dbe 5819 2d3d
00000120: 4de6 1cbd 23c4 babd 7b40 a23e 361e 65be
00000130: 5cf7 9fbd 8329 2d3e 7fa7 6fbe b266 223c
00000140: e52c 703e 1dca 3ebe 85d2 493e 14cc 99be
00000150: 45af f2bd 80f6 26be 676c 30be aaea 91be
00000160: 4c00 a4bd 4a3f ebbd c039 dabd bef3 2dbe
00000170: c253 223d 1ce1 683e a7cc 90be f143 60bd
00000180: d6cd cf3a 2e3b 97be 14bb a33e 8e8b 063e
00000190: c5be 863d 400a 663c e34b 45be 4cb2 8c3d
000001a0: cfba 66be 0301 503e db4a 463e d26c d1bc
000001b0: d7fa 39be 8e41 7b3e f9d3 393e 9990 4a3e
000001c0: 9447 23be 84a5 b83c 6cdc e53d b6a6 fb3d
000001d0: 00a4 1e3d 2e92 273d 1a67 9dbc 2e65 c13d
000001e0: a8a3 20bd 3f60 91be 0fde fa3b 17ae e63d
000001f0: 7477 703e dd49 a7be 0670 973d e2eb 2f3e

backbone.encoder.mlp_mixer_encoder.mixers.0.patch_mixer.mlp.fc2.bias f4 [8]
-0.09977657 -0.014129988 0.1888842 -0.23989797 0.17431705 -0.11180941 -0.1266209 -0.058667623
00000000: a957 ccbd 7781 67bc dc6a 413e d0a7 75be
00000010: 2b80 323e 55fc e4bd e9a8 01be 764d 70bd

backbone.encoder.mlp_mixer_encoder.mixers.0.patch_mixer.mlp.fc2.weight f4 [8, 16]
0.18290077 0.22781552 -0.026200214 -0.08485379 0.08296561 -0.06621017 -0.12617333 0.019130554
-0.12343106 0.07833525 -0.06623407 0.12586425 0.2465387 0.21290898 -0.053937655 -0.17739248
-0.17686963 -0.062261544 0.18449865 0.024021383 0.1828205 0.17526226 0.065396495 -0.12138094
-0.15537226 -0.20446016 -0.15817839 0.061994705 -0.065730534 -0.12962505 -0.13942453 -0.15136038
0.057037078 0.019788576 0.22493452 -0.18241556 -0.021445382 0.08137038 0.109236665 0.19141617
-0.16422155 0.08618833 0.13837431 0.13957688 -0.0885059 0.1298763 -0.18269414 -0.10549476
-0.086525075 -0.20873198 -0.0454181 -0.054156404 0.0509715 -0.122895375 -0.042354047 -0.009875019
0.21234995 0.22950743 0.16584425 0.2320956 0.014092979 -0.09641158 -0.09703624 0.01756061
-0.108884566 -0.22727148 -0.16846427 -0.0044818516 0.04178678 -0.17712414 -0.2055933 -0.104695454
-0.11319963 0.022542289 -0.10312064 -0.20163035 -0.1437914 0.2342688 0.1571463 0.20018174
-0.16974127 -0.04365967 -0.14386885 -0.20358446 0.12650427 -0.051120684 -0.16573735 0.13994497
0.12262036 0.19660313 -0.11800762 -0.2436322 0.16401863 -0.07811153 0.16626224 -0.07445565
0.17481305 0.017715016 -0.15987173 0.16844968 -0.2092418 -0.033981744 -0.19589114 -0.10226445
-0.1335061 -0.04617649 -0.0111732 -0.22247145 0.22615243 0.00994041 0.033930894 -0.17283437
-0.20595916 0.23789123 0.12794834 0.05970674 0.15291902 -0.20337014 -0.017516382 0.10929456
0.03323964 -0.06306897 -0.12861447 0.1885214 0.24607359 0.078871526 0.10218204 0.16298445
00000000: 574a 3b3e 7948 693e d5a1 d6bc d3c7 adbd
00000010: e0e9 a93d 3399 87bd 9533 01be aeb7 9c3c
00000020: 6cc9 fcbd 3b6e a03d baa5 87bd 8fe2 003e
00000030: a474 7c3e d004 5a3e bbed 5cbd 60a6 35be
00000040: 501d 35be f605 7fbd 37ed 3c3e 7ec8 c43c
00000050: 4c35 3b3e f377 333e 99ee 853d 9296 f8bd
00000060: e819 1fbe 015e 51be 84f9 21be 29ee 7d3d
00000070: bb9d 86bd 6ebc 04be 4ec5 0ebe 37fe 1abe
00000080: b69f 693d a71b a23c 3c55 663e 25cb 3abe
00000090: 3aae afbc 84a5 a63d 79b7 df3d 9a02 443e
000000a0: b229 28be 8283 b03d ffb1 0d3e 3eed 0e3e
000000b0: 9542 b5bd 4bfe 043e 2c14 3bbe a30d d8bd
000000c0: 0f34 b1bd d6bd 55be 5408 3abd 1bd3 5dbd
000000d0: 7ec7 503d 92b0 fbbd 707b 2dbd d5ca 21bc
000000e0: 4472 593e ff03 6b3e 13d3 293e 78aa 6d3e
000000f0: 3de6 663c 6f73 c5bd f0ba c6bd 45db 8f3c
00000100: dffe debd dbb9 68be e681 2cbe 7fdc 92bb
00000110: 9d28 2b3d 0860 35be 0d87 52be 926a d6bd
00000120: 35d5 e7bd 9baa b83c ea30 d3bd 3078 4ebe
00000130: 0e3e 13be 29e4 6f3e f6ea 203e 71fc 4c3e
00000140: a8d0 2dbe 7bd4 32bd 5b52 13be 7278 50be
00000150: 568a 013e ec63 51bd 0db7 29be bc4d 0f3e
00000160: 6220 fb3d 5552 493e fbad f1bd b87a 79be
00000170: 80f4 273e f0f8 9fbd a640 2a3e 347c 98bd
00000180: 3102 333e 151f 913c 6ab5 23be 137e 2c3e
00000190: 7b43 56be 7130 0bbd b097 48be 0670 d1bd
000001a0: d3b5 08be 8f23 3dbd cc0f 37bc 8ecf 63be
000001b0: 8194 673e 1add 223c 1ffb 0a3d 7efb 30be
000001c0: f5e6 52be c299 733e e404 033e 0e8f 743d
000001d0: ce96 1c3e 4340 50be 847e 8fbc d4d5 df3d
000001e0: 4a26 083d 4e2a 81bd 83b3 03be c10b 413e
000001f0: b7fa 7b3e 6587 a13d d144 d13d 65e5 263e

backbone.encoder.mlp_mixer_encoder.mixers.0.patch_mixer.norm.norm.bias f4 [16]
0.00023584535 0.00012134873 6.9692614e-06 0.00017184619 -0.0001286276 -0.000107066204 0.00013196353 -0.00030545253
-0.00012176292 0.00018537095 7.499683e-05 -0.00023432865 -0.00017201949 0.00016584592 1.761527e-05 0.00036479556
00000000: 414d 7739 9a7c fe38 80d9 e936 9c31 3439
00000010: 35e0 06b9 bb88 e0b8 b15f 0a39 2525 a0b9
00000020: f85a ffb8 2360 4239 9e47 9d38 1eb6 75b9
00000030: 2160 34b9 ede6 2d39 81c4 9337 0842 bf39

backbone.encoder.mlp_mixer_encoder.mixers.0.patch_mixer.norm.norm.weight f4 [16]
0.9998988 0.999877 1.0000426 0.999867 0.9999097 1.0001382 1.0001082 1.0002999
0.9998198 0.99996996 0.99994653 1.0001829 0.9997668 0.9998274 1.0000885 0.9996275
00000000: 5ef9 7f3f f0f7 7f3f 6501 803f 49f7 7f3f
00000010: 15fa 7f3f 8704 803f 8c03 803f d409 803f
00000020: 31f4 7f3f 08fe 7f3f 7ffc 7f3f fe05 803f
00000030: b8f0 7f3f b0f4 7f3f e602 803f 96e7 7f3f

backbone.encoder.mlp_mixer_encoder.mixers.1.feature_mixer.gating_block.attn_layer.bias f4 [16]
0.11876698 -0.040852822 0.17998257 0.16745366 0.06835648 0.23980783 0.23506689 -0.18868312
-0.0702184 0.034243315 -0.19141656 -0.22329728 -0.0008148457 -0.1707111 -0.22530952 -0.20738791
00000000: 1a3c f33d 4a55 27bd 5a4d 383e f978 2b3e
00000010: 7bfe 8b3d 2f90 753e 60b5 703e 2636 41be
00000020: aace 8fbd b842 0c3d b402 44be 0ba8 64be
00000030: 5f9b 55ba e4ce 2ebe 8ab7 66be 7f5d 54be

backbone.encoder.mlp_mixer_encoder.mixers.1.feature_mixer.gating_block.attn_layer.weight f4 [16, 16]
-0.03866294 -0.08121053 -0.23170757 -0.10166198 0.08092944 -0.098484404 -0.12868792 0.22729327
-0.090968 -0.030004283 0.043946274 -0.12440887 0.13515452 0.16660947 -0.20364375 0.012724724
0.123143405 0.08233838 0.061336916 -0.1666298 -0.19089808 0.10590168 -0.05335992 -0.20169681
0.24895129 0.110980056 -0.06621774 0.13723706 0.18279251 -0.15571621 0.20933944 0.027721936
-0.23074573 0.00014445005 0.090626605 -0.10871942 0.21984462 -0.17609887 0.17621563 -0.06099871
0.07039 -0.00038657416 -0.22278064 -0.16196997 -0.0999165 -0.1951755 0.17440209 0.10008284
0.06190972 0.15481687 -0.15874177 -0.1068348 -0.03407694 0.12474578 -0.1137814 -0.18791819
0.21420951 -0.08927547 -0.14868116 -0.0052868547 -0.029334309 0.06882893 -0.19364929 -0.14882132
0.025681345 0.122287974 0.09242753 0.21930099 -0.09190991 0.12895933 0.22632712 0.02878274
-0.10924951 -0.10172131 -0.0486853 -0.16694604 -0.097686805 0.16142732 -0.14372674 0.05971095
0.013281715 0.19765489 -0.15986778 -0.12628326 0.06123594 0.096493214 -0.06017774 0.13175917
-0.12647107 0.19341569 0.048921533 -0.03774866 0.068185784 -0.12233326 -0.19462155 -0.08114261
-0.2129797 -0.043801326 0.052551962 -0.11885604 -0.18403234 -0.13559851 0.09082991 -0.021545723
0.15823555 0.073549025 -0.19122626 0.03501152 -0.12400893 0.010540127 0.23203927 -0.19354238
0.07029284 0.22815603 0.12441128 -0.22607578 -0.06615478 -0.15561178 0.05007569 -0.057376448
-0.047974 -0.05111941 0.13237122 -0.0279236 0.0031063869 0.05372787 0.12683801 0.063174814
0.014839244 -0.15658408 0.21128747 -0.14200184 0.15545535 0.04063098 0.18292587 -0.1623455
0.23447238 0.122548595 -0.151367 -0.12589331 -0.03838889 0.046816982 -0.21526554 -0.20660897
-0.10664255 -0.06391597 0.17841075 -0.07791249 -0.21800415 0.074123636 -0.035756443 -0.19280282
0.043555107 -0.18209155 -0.24292448 0.042841215 -0.1694446 0.08726588 -0.117776625 -0.15187173
0.118199214 -0.2378626 -0.19810764 0.15550403 0.1633293 0.1678904 -0.20405044 -0.13754174
-0.24732117 0.0508326 -0.07910215 0.06441387 -0.060111053 -0.08671177 0.21382344 -0.24525331
-0.03510675 0.13425292 -0.052627034 -0.07086582 0.03071429 0.22799496 0.20234154 -0.15931639
0.028081331 0.12904568 0.23707876 -0.10502429 0.20814776 0.09937837 -0.1964962 0.2101734
0.035555333 -0.15245718 -0.23854856 0.026468564 -0.04850957 -0.100421384 0.14906205 0.18869242
0.17018253 0.16699234 0.18331812 0.13884908 0.050641492 0.042208474 0.060423963 0.21800339
0.054687776 -0.15213987 0.012403694 -0.10789604 -0.12136646 -0.22273195 -0.13883185 0.014125692
0.09570067 0.00515504 0.20157029 0.12693924 0.24234799 -0.06520375 0.2235651 0.024159584
-0.06496035 -0.07529311 -0.065205075 0.0417723 0.2173568 0.24059708 0.08144876 0.24106172
-0.12212703 0.08417048 -0.16767377 0.026672814 -0.040179566 -0.24790108 0.17753349 0.06053512
0.09875275 0.16184133 0.18271822 -0.034119602 0.20382243 -0.2145865 -0.118051775 -0.040362503
-0.096575424 0.032323975 -0.22508307 0.1386786 0.17876507 -0.21430893 0.24634582 -0.09320698
00000000: 085d 1ebd b551 a6bd c044 6dbe 2834 d0bd
00000010: 56be a53d 31b2 c9bd c4c6 03be 91bf 683e
00000020: 6e4d babd 8bcb f5bc 0201 343d 14ca febd
00000030: f265 0a3e ac9b 2a3e fd87 50be 5c7b 503c
00000040: 9c32 fc3d 06a1 a83d 6b3c 7b3d 01a1 2abe
00000050: c97a 43be fbe2 d83d ee8f 5abd 9c89 4ebe
00000060: 16ed 7e3e 8349 e33d 2b9d 87bd df87 0c3e
00000070: f62d 3b3e 1274 1fbe 145d 563e 1d19 e33c
00000080: 9c48 6cbe 8477 1739 719a b93d 4aa8 debd
00000090: f31e 613e 4353 34be df71 343e c9d9 79bd
000000a0: a228 903d 1bad cab9 9c20 64be 75db 25be
000000b0: 06a1 ccbd 16dc 47be 7696 323e 3bf8 cc3d
000000c0: 0c95 7d3d 5088 1e3e 348d 22be 34cc dabd
000000d0: 4394 0bbd b77a ff3d 3906 e9bd a06d 40be
000000e0: bd59 5b3e 0fd6 b6bd e03f 18be 5a3d adbb
000000f0: 814e f0bc 2ff6 8c3d 004c 46be 9e64 18be
00000100: af61 d23c 1e72 fa3d a54a bd3d 7090 603e
00000110: 433b bcbd ea0d 043e 4cc2 673e c8c9 eb3c
00000120: 35be dfbd 4353 d0bd 3d6a 47bd e7f3 2abe
00000130: 0510 c8bd 344d 253e 1a2d 13be 7893 743d
00000140: 8d9b 593c 0b66 4a3e 61b4 23be 6650 01be
00000150: 89d2 7a3d 3c9e c53d ef7c 76bd e0eb 063e
00000160: a281 01be c30e 463e f261 483d 579e 1abd
00000170: fda4 8b3d dc89 fabd df4a 47be 192e a6bd
00000180: 5a17 5abe 0569 33bd ba40 573d cc6a f3bd
00000190: f972 3cbe 56da 0abe 0805 ba3d a880 b0bc
000001a0: 8008 223e dfa0 963d d1d0 43be 3d68 0f3d
000001b0: 65f8 fdbd 7fb0 2c3c b49b 6d3e f92f 46be
000001c0: b1f5 8f3d bca1 693e 57cb fe3d 6980 67be
000001d0: 287c 87bd b258 1fbe 2b1c 4d3d 9103 6bbd
000001e0: 6380 44bd 9662 51bd 528c 073e 09c0 e4bc
000001f0: 8694 4b3b c111 5c3d d3e1 013e cc61 813d
00000200: 4d20 733c 9457 20be be5b 583e ee68 11be
00000210: b02f 1f3e ac6c 263d eb50 3b3e e63d 26be
00000220: 8719 703e c2fa fa3d f3ff 1abe 2dea 00be
00000230: ab3d 1dbd 2ac3 3f3d 926e 5cbe 4d91 53be
00000240: 6967 dabd 60e6 82bd 4fb1 363e 9590 9fbd
00000250: 7b3c 5fbe 22ce 973d 5975 12bd 1a6e 45be
00000260: d766 323d 3576 3abe 32c1 78be 457a 2f3d
00000270: e382 2dbe 74b8 b23d df34 f1bd 4384 1bbe
00000280: 6e12 f23d 4192 73be bbdc 4abe 733c 1f3e
00000290: cc3f 273e 76eb 2b3e 99f2 50be bed7 0cbe
000002a0: c341 7dbe d835 503d 4f00 a2bd 6beb 833d
000002b0: 0237 76bd f195 b1bd 88f4 5a3e af23 7bbe
000002c0: 18cc 0fbd 9979 093e 728f 57bd 1922 91bd
000002d0: 899c fb3c 8377 693e 9f32 4f3e d623 23be
000002e0: d20a e63c 8d24 043e c6c4 723e fa16 d7bd
000002f0: b024 553e e386 cb3d 4d36 49be b237 573e
00000300: 78a2 113d bc1d 1cbe 1346 74be 9ad4 d83c
00000310: f9b1 46bd baa9 cdbd b9a3 183e 9638 413e
00000320: 5444 2e3e 0a00 2b3e bfb7 3b3e 742e 0e3e
00000330: 746d 4f3d cbe2 2c3d 1e7f 773d 483c 5f3e
00000340: 4a00 603d 8eca 1bbe dd38 4b3c 99f8 dcbd
00000350: fb8e f8bd d813 64be f029 0ebe 726f 673c
00000360: b6fe c33d 9ceb a83b 7168 4e3e 5cfc 013e
00000370: 122a 783e 8b89 85bd 40ee 643e 52ea c53c
00000380: ef09 85bd 4633 9abd 3d8a 85bd 6e19 2b3d
00000390: c892 5e3e 155f 763e 9cce a63d e2d8 763e
000003a0: bc1d fabd 9361 ac3d acb2 2bbe f280 da3c
000003b0: 5493 24bd c8d9 7dbe 57cb 353e adf3 773d
000003c0: e23e ca3d bcb9 253e 7c1a 3b3e ffc0 0bbd
000003d0: d4b6 503e 90bc 5bbe 21c5 f1bd 2753 25bd
000003e0: 56c9 c5bd 2566 043d 2d7c 66be c301 0e3e
000003f0: 310e 373e cd73 5bbe 1442 7c3e 4de3 bebd

backbone.encoder.mlp_mixer_encoder.mixers.1.feature_mixer.mlp.fc1.bias f4 [32]
-0.10540695 -0.09211868 0.10237228 -0.101787426 -0.13732436 -0.0070410063 -0.028633298 -0.036090348
-0.0792409 0.038035993 -0.13514666 -0.0900574 0.1500458 -0.14722234 0.063374 0.21673203
-0.038838405 -0.21252136 0.10081529 -0.051941216 0.043923106 0.21483901 0.22007371 0.08487967
0.015803944 0.20099486 0.21188125 0.16450755 0.042499695 -0.10273526 -0.10438887 0.18775511
00000000: 99df d7bd b8a8 bcbd 8fa8 d13d ed75 d0bd
00000010: c29e 0cbe 3eb8 e6bb 6190 eabc 79d3 13bd
00000020: 0e49 a2bd a1cb 1b3d e363 0abe 0470 b8bd
00000030: 9ba5 193e 74c1 16be 3aca 813d 00ef 5d3e
00000040: 0515 1fbd 339f 59be 3f78 ce3d 50c0 54bd
00000050: b7e8 333d c2fe 5b3e 015b 613e 64d5 ad3d
00000060: 4677 813c 99d1 4d3e 66f7 583e ab74 283e
00000070: 2914 2e3d dd66 d2bd d5c9 d5bd e042 403e

backbone.encoder.mlp_mixer_encoder.mixers.1.feature_mixer.mlp.fc1.weight f4 [32, 16]
0.13817404 0.05163027 -0.0830049 0.10767477 -0.033287972 -0.084358715 0.08372173 0.052619036
-0.11964751 0.015038551 0.14259194 -0.24213284 -0.023031488 -0.19855799 -0.003001318 0.13643049
-0.22438966 0.22324492 -0.045515563 -0.045516256 -0.058041576 0.10555284 0.015611759 0.22762406
-0.0015178368 -0.109762244 0.180248 -0.11402592 -0.15595548 0.031893447 0.20889136 -0.038783837
0.025411587 -0.027882237 0.23388372 -0.018530315 -0.19707307 -0.07972354 -0.11882744 -0.15884043
0.22300994 0.13653418 0.08651367 -0.15533483 -0.022035152 -0.10924923 0.17751493 0.24061729
0.2341315 -0.24836965 -0.12313551 0.20658481 -0.18516304 -0.24488361 0.20339303 -0.078569
-0.001352632 -0.21572435 0.051259663 -0.17694171 -0.0073236576 -0.17127922 0.06778968 0.132868
-0.05282872 -0.15922928 -0.15050587 -0.2237346 -0.09504513 -0.24206631 0.15224123 0.19185363
-0.08382257 -0.19937171 -0.16282643 0.112664506 0.050931364 0.07901056 -0.123690344 0.010108862
0.12740247 -0.064879686 0.21979596 -0.032310426 -0.24448761 -0.2376439 0.18713333 -0.1950197
0.104971945 0.15041326 -0.08476352 -0.057871826 0.24746646 0.06430096 0.1581047 0.09086999
-0.15570223 -0.1844318 -0.07320014 0.14217313 0.076039284 -0.21504048 -0.0614223 -0.15526211
0.009326392 0.1247272 -0.23844902 0.0463582 0.23443662 -0.01780436 0.110473186 -0.012321946
0.049729414 -0.19726627 -0.05800825 0.09143532 -0.1622065 0.03853536 -0.15200472 -0.07023956
0.08848688 -0.15792032 -0.0410503 -0.21860097 -0.12773646 -0.1057505 -0.14738822 0.026787538
0.07267147 -0.16687751 -0.20029567 -0.11893213 0.09685664 -0.2376862 -0.0033817894 0.15701593
0.03677918 -0.14794195 -0.16574124 0.03441764 0.21019518 0.08355106 0.025350044 -0.22596541
-0.17513274 -0.16579556 -0.21208042 0.14825235 -0.19771804 0.23377727 0.058016233 -0.09363041
0.035255376 -0.06749594 0.076201156 0.0663672 -0.035135087 0.22813512 0.23093133 0.09734519
-0.18846087 0.19773 -0.069018774 -0.040379636 0.13095517 0.024672385 -0.08318424 -0.053976722
-0.13655692 0.17399329 0.2153408 -0.0013165461 0.08221621 0.12172607 -0.097915746 -0.104014754
0.049823336 0.1194925 0.20790403 0.037660692 0.1982452 0.16546184 -0.24904545 -0.17581457
0.18239981 -0.24090776 -0.19969325 -0.12871893 0.11017201 0.04826483 -0.022638468 -0.23894928
-0.057996813 -0.12367091 -0.064530365 0.18113172 -0.055876326 -0.16873264 0.0083653275 -0.20911054
0.06681182 -0.06706723 -0.20111457 -0.08015822 -0.001341044 -0.07729235 0.026945483 0.07004922
0.19961363 -0.06396631 0.19071893 -0.029387577 0.14638986 -0.036488455 -0.1110135 -0.16243742
0.12674272 0.17308566 -0.016677493 -0.0752657 0.156285 0.049467973 0.007577464 0.16816719
0.02968099 -0.101983495 -0.059228446 -0.08440191 -0.09849357 -0.20534416 -0.2489777 0.022028737
-0.06620721 0.13666138 -0.15452462 0.031053955 0.0037820884 0.19519576 0.22582494 -0.19281442
0.018213456 0.2231387 -0.057670303 -0.24356581 -0.11910416 -0.19723794 0.12828362 0.053778756
-0.14816731 0.012969657 -0.16035442 0.2178505 0.07350759 0.038590856 0.11394843 -0.21621595
00000000: 7f7d 0d3e 437a 533d 79fe a9bd 9784 dc3d
00000010: f858 08bd 43c4 acbd 4c76 ab3d 0f87 573d
00000020: c109 f5bd 4164 763c 9f03 123e acf1 77be
00000030: 88ac bcbc c952 4bbe c3b1 44bb 6fb4 0b3e
00000040: 67c6 65be 519a 643e 876e 3abd 416f 3abd
00000050: 01bd 6dbd 162c d83d 77c8 7f3c 4816 693e
00000060: 27f2 c6ba 07cb e0bd ef92 383e 6c86 e9bd
00000070: cbb2 1fbe b4a2 023d 9ee7 553e cddb 1ebd
00000080: f62b d03c 4a69 e4bc 377f 6f3e e3cc 97bc
00000090: 86cd 49be 1846 a3bd cd5b f3bd 11a7 22be
000000a0: b85c 643e 9ecf 0b3e 142e b13d 1810 1fbe
000000b0: 1083 b4bc 0fbe dfbd 79c6 353e 6164 763e
000000c0: 2bc0 6f3e 9d54 7ebe 782e fcbd f88a 533e
000000d0: 619b 3dbe c5c2 7abe 4346 503e c9e8 a0bd
000000e0: cc4a b1ba d8e6 5cbe a7f5 513d 3530 35be
000000f0: 4bfb efbb d263 2fbe 51d5 8a3d 8d0e 083e
00000100: ee62 58bd 000d 23be 361e 1abe af1a 65be
00000110: 05a7 c2bd 3be0 77be 20e5 1b3e 4775 443e
00000120: 2bab abbd 1928 4cbe f9bb 26be a6bc e63d
00000130: 689d 503d 4ad0 a13d 5d51 fdbd a49f 253c
00000140: cb75 023e a4df 84bd 3112 613e f057 04bd
00000150: f65a 7abe ec58 73be e19f 3f3e 3fb3 47be
00000160: 88fb d63d ef05 1a3e 7f98 adbd 020b 6dbd
00000170: d967 7d3e 39b0 833d 33e6 213e 0c1a ba3d
00000180: 6870 1fbe b1db 3cbe f4e9 95bd d595 113e
00000190: 7cba 9b3d 9233 5cbe f395 7bbd 08fd 1ebe
000001a0: b9cd 183c f970 ff3d fb2b 74be 19e2 3d3d
000001b0: 2710 703e 73da 91bc c43f e23d fde1 49bc
000001c0: 12b1 4b3d 2b00 4abe 0f9a 6dbd 7142 bb3d
000001d0: 7619 26be 41d7 1d3d 20a7 1bbe c2d9 8fbd
000001e0: 9c38 b53d ddb5 21be 5c24 28bd efd8 5fbe
000001f0: 59cd 02be b893 d8bd f0ec 16be 8a71 db3c
00000200: c8d4 943d f0e1 2abe 4f1a 4dbe b092 f3bd
00000210: c65c c63d 0364 73be 03a1 5dbb c9c8 203e
00000220: c4a5 163d 187e 17be 12b8 29be 83f9 0c3d
00000230: 683d 573e d11c ab3d e5aa cf3c 7a63 67be
00000240: ff55 33be 50c6 29be 9c2b 59be 77cf 173e
00000250: 9976 4abe 4f63 6f3e 6ea2 6d3d 4dc1 bfbd
00000260: f167 103d 503b 8abd 5a0f 9c3d 87eb 873d
00000270: cfe9 0fbd 419c 693e 4379 6c3e ea5c c73d
00000280: e3fb 40be bc79 4a3e b759 8dbd 1e65 25bd
00000290: 1d19 063e be1d ca3c 805c aabd b216 5dbd
000002a0: 94d5 0bbe 4c2b 323e 4c82 5c3e f58f acba
000002b0: f960 a83d 854b f93d 0d88 c8bd b005 d5bd
000002c0: 8e13 4c3d 7cb8 f43d cbe4 543e 1942 1a3d
000002d0: ca00 4b3e d46e 293e c505 7fbe bc08 34be
000002e0: 04c7 3a3e 86b0 76be 637c 4cbe e5ce 03be
000002f0: dda1 e13d 58b1 453d 4f74 b9bc 1faf 74be
00000300: 118e 6dbd 2d47 fdbd 7f28 84bd 987a 393e
00000310: 93de 64bd 40c8 2cbe ba0e 093c 1321 56be
00000320: a3d4 883d 8b5a 89bd faf0 4dbe fe29 a4bd
00000330: f8c5 afba 744b 9ebd c6bc dc3c f775 8f3d
00000340: 8467 4c3e c500 83bd d34b 433e 37be f0bc
00000350: 39e7 153e eb74 15bd 0c5b e3bd ff55 26be
00000360: d8c8 013e 5e3d 313e 3d9f 88bc e724 9abd
00000370: 2d09 203e ee9e 4a3d 604c f83b 0534 2c3e
00000380: 8c25 f33c b9dc d0bd 8799 72bd e9da acbd
00000390: ffb6 c9bd bd45 52be 03f4 7ebe 9c75 b43c
000003a0: a597 87bd f6f0 0b3e b43b 1ebe dd64 fe3c
000003b0: eadc 773b 66e1 473e a73e 673e 2571 45be
000003c0: 6334 953c 797e 643e b237 6cbd 5169 79be
000003d0: e2ec f3bd bef8 49be c85c 033e 1d47 5c3d
000003e0: 2cb9 17be af7e 543c f333 24be 3414 5f3e
000003f0: 268b 963d 7211 1e3d cb5d e93d b767 5dbe

backbone.encoder.mlp_mixer_encoder.mixers.1.feature_mixer.mlp.fc2.bias f4 [16]
0.06260143 -0.13442184 -0.06793102 -0.07897528 0.11172252 -0.1341495 0.14935237 0.04858102
-0.15323375 0.010998425 0.120978214 -0.16840436 0.080039 -0.17118017 -0.099443376 0.16621867
00000000: 2e35 803d e1a5 09be 6b1f 8bbd cbbd a1bd
00000010: c7ce e43d 7d5e 09be d4ef 183e e4fc 463d
00000020: 4fe9 1cbe bd32 343c 6dc3 f73d 3172 2cbe
00000030: 7deb a33d db49 2fbe f8a8 cbbd 3a35 2a3e
